epoch=10461-step=188316.ckpt (torch, 630683 bytes, 30 tensors)

model.model.0.weight f4 [128, 5]
000000 5f bd 3a be 66 b5 72 3c 73 71 63 be ab b2 2c 3e
       -0.18236302 0.014813757 -0.22211246 0.16865031
000010 11 19 c3 be 99 57 11 3d bb 65 31 3e 65 38 bc be
       -0.38105062 0.03548393 0.17323963 -0.36761776
000020 e6 59 22 be 81 41 03 be 2e 35 29 be a9 5e 2b 3e
       -0.15854606 -0.12817957 -0.16524193 0.16735329
000030 1f 56 c2 be 6e ec 8a be a6 25 28 be 69 06 51 be
       -0.3795633 -0.27133507 -0.16420612 -0.20412602
000040 9b e3 dd be 7a 72 ed 3e c8 d6 fa 3d 3a f7 af bd
       -0.43337712 0.463764 0.122479975 -0.085920766
000050 f4 1e b2 3e 2b 77 f7 bf d3 e3 c7 bf a0 fe 50 be
       0.3478924 -1.9333242 -1.5616401 -0.20409632
000060 d2 49 2e be 21 0e 11 3e 75 bf 4b be c0 a2 a3 3e
       -0.17020348 0.14165546 -0.19897254 0.31960106
000070 fd de b6 3e 6a 1b d3 be 09 56 99 3e 03 0e ca 3f
       0.35717002 -0.41231853 0.29948452 1.5785526
000080 04 01 4e bf 64 0d 46 bf d2 78 18 3b 48 66 8a be
       -0.804703 -0.7736418 0.0023265374 -0.2703116
000090 83 01 3b bf a1 83 a9 bd f4 12 98 be 28 8e 98 bd
       -0.7304918 -0.08277059 -0.2970196 -0.07448989
0000a0 2a 2f 7d c0 49 ab ac 3e 08 1c f4 3f 00 b0 cb 40
       -3.9560037 0.3372443 1.9071054 6.3652344
0000b0 c6 a0 0b 3d 04 9f f6 bd a3 97 a2 bf 79 7b 37 bf
       0.034088872 -0.120420486 -1.2702526 -0.7167278
0000c0 3d 76 e8 be bb b9 98 bd e8 f7 86 3d 24 38 c2 3e
       -0.4540271 -0.074573 0.06590253 0.37933457
0000d0 31 23 c1 3e 26 59 00 3f 9d 04 22 be 52 cf d4 be
       0.3772216 0.5013603 -0.15822072 -0.41564423
0000e0 90 99 8d be ca 72 c3 3e 03 fc da 3c 39 7c b9 be
       -0.2765622 0.38173515 0.026731497 -0.36227587
0000f0 aa 92 8c 3d c7 30 bd 3e 38 61 d8 be 64 27 9a be
       0.068639114 0.36951277 -0.42261672 -0.30108178
000100 03 87 38 be f1 ca 4d bd 88 88 05 be 25 01 a5 be
       -0.18020253 -0.050242368 -0.13040364 -0.32227436
000110 06 7b 19 bf b8 66 ab bd 7e 50 2e 3e 3c 50 72 3f
       -0.59953344 -0.083692014 0.17022893 0.9465368
000120 16 be 8f bf c7 87 bd bf 05 4c cd bb 3f 9f 85 bd
       -1.1229885 -1.4807061 -0.0062651657 -0.065245144
000130 8c 99 6e 3f ca ec 30 bf 1a 58 ea bd 0a da b5 bd
       0.93203044 -0.6911131 -0.11442585 -0.08879478
000140 9d d3 3c 3e fd 03 ac 3e 6e c4 5d 3e 7d 8b 2b bd
       0.18440099 0.33596793 0.21656963 -0.041881073
000150 7c 57 91 be c7 9f b3 be c6 9d 09 bf 23 11 40 3e
       -0.28387058 -0.35082838 -0.5375637 0.18756537
000160 ff 3d 14 3e eb 58 84 bd bb 96 af be 4c ae b0 3e
       0.14476775 -0.06462272 -0.34294686 0.34507978
000170 fb 95 0f 3e 0d 67 9e 3e d5 26 34 be 1c 69 49 3d
       0.14022057 0.30937997 -0.17592938 0.049172506
000180 d9 9d d3 3e ce 80 9b 3e 9c 88 b6 3e c4 4c 1a be
       0.41331366 0.30371708 0.356511 -0.15068346
000190 42 b9 7f 3e d3 0b 33 bf 5f 86 fe be f1 2b 93 bd
       0.24973014 -0.6993992 -0.49711892 -0.071861155
0001a0 c2 06 91 be 80 6a ec c0 0a 46 35 c0 f4 1d be 3f
       -0.28325468 -7.3880005 -2.8323998 1.4852891
0001b0 ae e7 73 40 b8 14 c0 3c c4 1b c7 3e ff 9e 84 3f
       3.8110156 0.02344738 0.3888837 1.0361022
0001c0 14 67 f5 be 02 89 08 bf 80 29 d0 bb cd c9 89 bd
       -0.47930205 -0.5333406 -0.0063526034 -0.067279436
0001d0 07 41 0a c0 bb 62 85 bf 4b d1 9e bf af f8 79 bd
       -2.160219 -1.0420755 -1.2407621 -0.06102818
0001e0 82 21 1b be f6 23 40 be 14 c3 f4 3d 3f 87 a3 be
       -0.15149501 -0.18763718 0.11951271 -0.31939122
0001f0 ed 2a a2 bd f9 05 6d be 7c 44 14 3f d8 4a 9b bd
       -0.07918344 -0.2314681 0.57917 -0.07582635
000200 3a f1 92 3d 27 f0 a9 bd 3e b1 c5 c0 b2 d7 60 3e
       0.071749166 -0.082977585 -6.177886 0.21957281
000210 b5 7e ff 3f 4c 9d b3 40 74 4a 14 3d e8 e9 98 be
       1.9960543 5.6129513 0.036203817 -0.29865956
000220 cd 7b 4a 3e 95 ab 24 3d 4a 73 33 3d 94 ca 0a be
       0.19773789 0.040202696 0.04381112 -0.1355384
000230 30 b5 f1 bd 61 54 f0 be e6 eb 42 3c 8c 16 ab 3e
       -0.11802137 -0.46939376 0.011897063 0.3341564
000240 10 7d a5 bd 3e d5 4a be 04 dd 8b be 1f 05 0c 3d
       -0.080804944 -0.19807908 -0.2731706 0.03418457
000250 ef dc a9 be 9e 1b ac be 63 7b 2b bf 54 9d 85 bf
       -0.3317637 -0.3361482 -0.6698515 -1.0438638
000260 b9 cd 20 3d bc 85 af 3e 03 52 95 bd 84 0f 15 3d
       0.039258692 0.3428172 -0.07291033 0.03639175
000270 16 88 65 3f a8 d6 1a bf a3 e2 9e bf eb 85 dc bd
       0.89660776 -0.6048379 -1.2412914 -0.1076773
000280 c5 e4 13 3e ef c1 01 40 08 6d 56 bf 9a b8 5c be
       0.14442737 2.0274618 -0.8376012 -0.21554795
000290 ed 64 a0 3d 02 81 e8 3d c3 17 fa bd 67 48 0b bf
       0.0783175 0.11352731 -0.122115634 -0.5440735
0002a0 12 fc e6 be 6a d8 25 be 23 fd ed bc b7 b6 af be
       -0.4511419 -0.16195837 -0.029051369 -0.34319088
0002b0 bb 5b b6 bb db c3 ab 3d 35 f8 9b be 49 81 90 bf
       -0.0055651343 0.08386966 -0.30462804 -1.1289455
0002c0 83 99 02 bf 9d f9 8c 3f f5 6c ad 3f fa 4c 24 bb
       -0.5101549 1.1013676 1.3548876 -0.0025070296
0002d0 7d c5 df bc 36 1f 93 3c 7d c6 8e 3e b2 32 ca be
       -0.02731585 0.017959218 0.2788581 -0.39491802
0002e0 69 ac b0 be f5 40 18 be 40 c7 83 be bc 33 6c 3e
       -0.3450654 -0.14868529 -0.25737953 0.2306661
0002f0 ef c9 a1 3e e7 27 de be 35 53 c2 be 74 fa de be
       0.31599376 -0.43389818 -0.37954107 -0.43550456
000300 30 c3 2c 3e 4d 4a b8 3e 40 88 b1 be 06 31 9d be
       0.16871333 0.35994187 -0.34674263 -0.30701464
000310 2d f4 82 3d 22 25 c0 be 27 90 84 3e 93 69 a5 bd
       0.06394229 -0.3752833 0.2589123 -0.08076777
000320 40 f8 fe bd 86 f3 ed 3c fc c5 0e 3e 9c ef 21 be
       -0.12449694 0.029046785 0.13942713 -0.1581406
000330 dd 6b b1 be b8 93 db bd a7 06 20 bd 6f 98 2c bf
       -0.34652606 -0.107215345 -0.039068844 -0.67420095
000340 63 f1 66 bf 08 95 92 bd 7f d5 a6 be f9 81 97 be
       -0.90212077 -0.07157332 -0.3258476 -0.2959135
000350 77 0f 62 3e a0 b2 d7 be e3 74 9a bd 83 d1 e8 be
       0.22076212 -0.42128468 -0.075418256 -0.45472345
000360 fc 1b 21 3e b1 9c 00 bd 4b 50 d8 3d 5c 0f 87 bd
       0.15733331 -0.031399433 0.1056219 -0.065947264
000370 5f 0e 44 bf 62 76 6f bf 1a d5 96 3d 07 b5 a1 be
       -0.7658443 -0.9354001 0.07364865 -0.31583425
000380 26 e7 6d bd ce 57 34 c0 4c 54 ec 3f c1 61 2f 40
       -0.05808177 -2.8178592 1.8463225 2.7403414
000390 28 5d b4 40 cf db 36 3d 02 5f 8a be d8 05 4b bd
       5.6363716 0.04464322 -0.2702561 -0.04956612
0003a0 59 c1 c6 be b2 6d 5a 3e c4 0d a9 bd 6f 35 5b bf
       -0.38819388 0.21330908 -0.08254579 -0.8562841
0003b0 63 57 99 bf b6 8e b9 3e 40 46 b3 3c a9 bf 8f 3d
       -1.1979793 0.36241692 0.021884084 0.07018978
0003c0 1a 8c cc bc c9 ac 7a bf 47 19 96 bf ba 94 9c bf
       -0.02496915 -0.979199 -1.1726464 -1.2232888
0003d0 a6 14 15 3e 7a 83 14 3d 5d c1 c0 be 19 f7 ca be
       0.14558658 0.0362582 -0.37647524 -0.39641646
0003e0 19 2f e2 3e 00 29 fe bd 4c 40 17 3d a6 c8 88 3f
       0.44176558 -0.12410164 0.036926553 1.0686233
0003f0 d2 b7 84 3f f1 7d ec 3e 99 01 0f be e5 5f 12 3e
       1.0368598 0.46189836 -0.13965453 0.14294393

model.model.0.bias f4 [128]
000000 95 1f b9 3e 23 1a 52 3d 85 b3 b3 be 56 d3 41 3e
       0.36156908 0.051294457 -0.350979 0.18928275
000010 03 69 c8 bf 44 29 3d 3e 41 42 1d bf f4 f7 96 be
       -1.5657047 0.18472773 -0.6142922 -0.29486048
000020 1e 2d ac 3f 60 ed 3d be 6f 64 e7 bd 31 9a cf bd
       1.3451269 -0.18547583 -0.11298453 -0.101368316
000030 6e 81 18 be de 88 d8 be cd 3d 37 bf f0 ff 2c bd
       -0.14893124 -0.4229192 -0.71578676 -0.04223627
000040 55 02 16 3f 3c 53 c3 be bb 3b 55 3d 61 d8 e7 be
       0.5859731 -0.3814944 0.052058917 -0.45282272
000050 ca b8 21 bf e2 4f 44 3f 11 8a 2a bf ba 48 67 bf
       -0.6317259 0.7668439 -0.6661692 -0.90345347
000060 25 a6 af be dd b9 d8 be d3 33 f3 3f 23 07 16 be
       -0.34306446 -0.42329302 1.900019 -0.1465116
000070 6d df 60 3e f3 29 87 3e 1c b7 00 bd 59 df 3d bf
       0.2196023 0.26399192 -0.031424627 -0.74168926
000080 34 73 49 be 33 8b 61 bf e4 12 79 be 15 2e da 3f
       -0.19672853 -0.88103026 -0.24323612 1.7045313
000090 b6 32 0d 3d 03 b8 db 3e 7d 2f e1 be 20 d9 c2 3c
       0.03447219 0.42913827 -0.43981543 0.023785174
0000a0 63 3c d1 be 6e 74 4d bf 9c 04 db bc 98 68 08 3f
       -0.40866384 -0.8025578 -0.026735596 0.532846
0000b0 a1 b7 89 be 1a ec 15 40 d8 a6 b9 bd f4 b3 86 3e
       -0.2689791 2.3425355 -0.09065026 0.26309168
0000c0 40 8e 85 bf 2a 33 5f be 4f c3 6f 3f f9 c9 24 bf
       -1.0434036 -0.21796861 0.9365739 -0.64370686
0000d0 7d 04 06 be 58 b2 c3 bc 4d 99 59 3e 28 5a df bc
       -0.1308765 -0.023888752 0.21249886 -0.02726467
0000e0 9b e8 27 3f da 82 2b 3f 07 7d ce be 17 3f 09 3f
       0.655893 0.6699654 -0.40329763 0.5361189
0000f0 2a ca 15 3e 0d ee 2c bf 51 37 a9 3d c7 5d 8b 3c
       0.146279 -0.67550737 0.08262504 0.01701249
000100 83 81 67 be 0e c9 08 40 54 fd c6 3d 52 49 2d be
       -0.22607999 2.1372714 0.09716287 -0.169225
000110 72 3e cc be 08 f7 33 be b9 48 f9 3b fa 4d fe be
       -0.39891392 -0.17574704 0.007607546 -0.49668866
000120 0d bd 04 bf f5 a2 1f 3e 2a 1b 7c bf 3f 28 03 3f
       -0.5185097 0.15589507 -0.9847895 0.51233286
000130 d8 cb 08 be 4b dd b3 be 98 0e 05 bf 35 fa 14 3d
       -0.1335901 -0.3512977 -0.51975393 0.03637143
000140 1a e0 a4 be 9f 78 40 be c7 0c b1 bf 7e 7c 8e be
       -0.32202226 -0.18796013 -1.3832024 -0.27829355
000150 fd 42 42 be fc 41 93 3c 63 66 97 be ab 34 52 be
       -0.18970867 0.0179758 -0.29570302 -0.20527904
000160 5a 5f 44 bf cb 5f b4 3e 0b 17 a9 3e c6 61 b7 be
       -0.76707995 0.35229334 0.33025393 -0.35816783
000170 ce a2 31 bf 93 99 31 bf bf c6 47 3e 4e 49 8c 3f
       -0.69389045 -0.6937496 0.1950941 1.0959871
000180 12 a0 e2 be d0 e4 96 3f be 78 c1 3f 91 d2 94 3d
       -0.4426275 1.1788578 1.5114973 0.07266725
000190 45 a4 aa 3b 6c 81 ab be 16 40 e2 3e cd 16 c3 be
       0.0052075707 -0.3349718 0.4418952 -0.38103333
0001a0 e7 12 78 3d 54 cc 4c be ca d2 90 be a5 d6 45 be
       0.0605649 -0.1999982 -0.2828582 -0.19320162
0001b0 06 eb 08 bf c4 3a 03 3e c8 ab 34 be 63 3b 75 3e
       -0.5348362 0.12815386 -0.17643654 0.23948435
0001c0 5a 49 33 3f 29 67 f7 3e 1b 4b da be ce 4d 33 3f
       0.700338 0.48320892 -0.42635426 0.70040596
0001d0 2f 4d dc 3d ea 02 e9 be f4 07 46 3e 05 ee 2e bf
       0.10756909 -0.45510036 0.19338971 -0.6833194
0001e0 0c fa 11 bf 76 4e f5 bf ac e6 a1 be ea 29 1d 3f
       -0.57022166 -1.9164569 -0.316213 0.6139208
0001f0 a6 f8 b5 bd 56 e1 be be f2 81 07 3e 93 03 14 be
       -0.088853166 -0.37281293 0.13233164 -0.14454488

model.model.2.weight f4 [128, 128]
000000 80 ae f1 bd b4 cd 56 bd ae 6f d5 bd 85 f5 3c 3d
       -0.11800861 -0.052442268 -0.10421692 0.046132583
000010 de a6 fe 3a 14 7d b7 bd 13 5f 06 be 13 fb 95 3c
       0.0019428392 -0.08959404 -0.13122205 0.018308198
000020 db a2 62 be 9d 4c 13 3d 42 9d 8c 3c 0a 60 45 3c
       -0.22132437 0.035961736 0.01716483 0.012046823
000030 54 74 ba bd f5 78 66 3d 8b b3 24 bb 10 2e 79 3d
       -0.09104219 0.056267697 -0.002513143 0.060834944
000040 43 c8 c1 bc 65 96 ab bd ad 56 d4 bc 70 dc 08 be
       -0.023655063 -0.08378295 -0.025920236 -0.1336534
000050 9a 67 46 bd 81 90 24 bf 47 7f 14 bd 85 c5 1b be
       -0.048438646 -0.64282995 -0.036254194 -0.15212066
000060 82 5b 67 3d 1d 35 59 bd 74 c7 c7 be 22 c0 24 3c
       0.056483753 -0.05302917 -0.39019358 0.010055574
000070 c1 e3 4c 3d 44 af 62 bb 06 73 74 3b 19 92 00 be
       0.05002189 -0.003458933 0.0037300005 -0.12555732
000080 95 be 53 bd eb 63 04 be 58 c3 3d bd ed 9f 0c bd
       -0.051695425 -0.1292874 -0.046328872 -0.034332205
000090 32 05 4e bc 5a 50 27 bc cc 21 97 bd 18 e9 10 bd
       -0.012574481 -0.010212028 -0.07379493 -0.035378546
0000a0 23 b7 4d ba 33 de 80 bd 7e 09 96 bd 79 fc 55 bd
       -0.0007847419 -0.06292381 -0.07326029 -0.05224273
0000b0 b6 52 b8 bd cf 84 04 be 4b 17 3c 3d 50 e8 7a bd
       -0.09000151 -0.12941287 0.04592065 -0.061256707
0000c0 28 a0 a8 bd f9 6d 04 3d 9e ab 19 bd a5 c0 2a be
       -0.082336724 0.03233144 -0.037517183 -0.1667505
0000d0 67 64 59 bd 09 d8 72 bd 49 c5 ff bd fc c6 e6 bd
       -0.053074267 -0.05928806 -0.12488801 -0.11268422
0000e0 f0 90 0b bd 14 bb 7b bb 48 2d 8b bd 1f c6 c3 bd
       -0.03407377 -0.0038411068 -0.06795746 -0.09559273
0000f0 18 55 a6 bd d5 97 e6 3b c4 1c 23 bd f4 7d 06 be
       -0.08121699 0.0070371428 -0.039822355 -0.13133985
000100 1e da d7 3c 7f 38 07 be 0e 2e 28 bd 00 f6 7b 3d
       0.026349124 -0.13205145 -0.041059546 0.0615139
000110 7e ba 40 bd 43 5c b5 3c 99 2b f1 bd 18 55 c3 bd
       -0.047052853 0.02213872 -0.11775894 -0.09537715
000120 8b c0 95 bd 4e b3 49 3c 0a 01 23 be 28 6d 54 3d
       -0.07312115 0.012310816 -0.15918365 0.051861912
000130 52 fd e2 bd 9d b6 b6 bd 6a 31 4e 3d c6 99 0b be
       -0.11083473 -0.089215495 0.050340094 -0.13632879
000140 00 ba 14 3d 0e ca 1e bd 87 7c f7 3c cb 6a e8 bd
       0.036310196 -0.038766913 0.030210746 -0.11348494
000150 a7 8c bb bc 6b cf 35 3d 8e af 46 bd d4 94 03 3c
       -0.022894217 0.044387262 -0.048507266 0.008031089
000160 ba 1d 6d 3d e2 89 39 3d 25 36 78 3d 75 3e 71 3d
       0.057889678 0.04529751 0.06059851 0.058897454
000170 f4 d5 40 bd 86 6c e1 3c 04 90 04 be 4a bd 13 3d
       -0.04707904 0.027517568 -0.12945563 0.036069192
000180 0e 67 93 bd ec 97 41 3d d9 15 11 be 3e ca 19 3d
       -0.071973905 0.047264025 -0.1416849 0.03754639
000190 02 05 18 be 0a ce 05 be 42 43 05 bd 97 5b d1 3b
       -0.1484566 -0.13066879 -0.032534845 0.006389092
0001a0 10 3a 01 be 9f f8 9c bc 59 52 eb bc 56 07 bc bd
       -0.12619805 -0.01916152 -0.02872579 -0.09181087
0001b0 12 b0 bf bd 7d c0 01 be 84 de 13 be 0c 6d d5 bd
       -0.093597546 -0.12671085 -0.14440352 -0.1042119
0001c0 84 58 ae be 74 bf 85 3d ae 7c ef bd aa 7f f8 bd
       -0.34051907 0.065306574 -0.11693703 -0.12133725
0001d0 30 3f da bd 19 d4 d1 3c c0 6f 47 3d 9f 02 3c be
       -0.10656583 0.025613831 0.048690557 -0.18360375
0001e0 84 9b 94 bd a8 96 13 3d b8 6a 1b be 93 49 0c 3d
       -0.07256225 0.03603235 -0.15177429 0.034249853
0001f0 58 97 d3 bd c8 22 0c 3c a0 10 59 3d ec e3 21 3a
       -0.10331601 0.008553214 0.05299437 0.00061756256
000200 d0 d6 85 bc 91 f8 05 bd 49 ad 14 3e 7c fd a7 bd
       -0.016337782 -0.032707755 0.14519228 -0.08202645
000210 4e 73 a8 3d 27 b1 27 3b 71 77 bc bd 17 5a 7a 3d
       0.082251176 0.0025587769 -0.09202469 0.061121073
000220 80 fc ef 3d f9 de ed bd e0 21 1d bc 5b 20 8c 3b
       0.117180824 -0.11614794 -0.009590596 0.004276318
000230 a1 33 80 3d 31 47 58 3d 21 c1 85 bc 29 48 e9 bd
       0.062598474 0.05280227 -0.016327443 -0.113907166
000240 fc ec 3e 3d c0 ee 8b bd 0a 4f 5e 3c 3d 86 e3 3d
       0.046612725 -0.06832647 0.013568649 0.11109588
000250 5e f7 b6 3c 35 e3 1d 3f 62 5c 11 3d 19 33 20 be
       0.02233475 0.61674815 0.035488494 -0.15644492
000260 c7 e3 34 bc 27 72 bc bd dc ff 98 3e ce 4e b4 bb
       -0.0110406345 -0.0920146 0.29882705 -0.0055025583
000270 97 1a a6 3d f6 c1 db 3c 5b 56 84 3d 51 13 de bd
       0.0811054 0.026825886 0.064617835 -0.10843528
000280 20 99 33 bd 48 41 f9 bd 58 a2 c2 3d cd e6 f0 bd
       -0.043847203 -0.121706545 0.09503621 -0.11762772
000290 f2 9d 07 3d 58 a1 37 3d 31 d2 80 3d 43 76 11 bd
       0.033109613 0.044831604 0.06290091 -0.035513174
0002a0 a8 60 49 3d cb 5a 70 bd 39 b7 6d 3d fd 55 a0 bd
       0.049164444 -0.058680337 0.058036063 -0.07828901
0002b0 b8 03 8b bd 84 23 24 3e 7e 24 d9 3c 75 f7 d4 bd
       -0.06787819 0.16029173 0.026506659 -0.10398761
0002c0 20 69 16 be 9c 4a 96 3d b0 3d c2 bd ac ed 11 be
       -0.1468854 0.07338449 -0.09484422 -0.14250821
0002d0 80 3c f1 bc d7 99 a1 bd 5a c9 53 3d 6e c9 31 3d
       -0.029447794 -0.07890671 0.051705696 0.04340499
0002e0 ab 02 e9 bc f3 20 4b bd 59 33 9c 3d 51 5d 9d 3d
       -0.028443655 -0.04959197 0.07626981 0.07683814
0002f0 ec 1f b8 3d 34 74 d6 3b 0b 6a 10 3e 14 04 e8 3d
       0.089904636 0.006544614 0.14102952 0.11328903
000300 43 f1 53 3d 13 04 4a 3d 94 d8 92 bd 18 3e aa 3d
       0.051743757 0.04932029 -0.07170215 0.08312625
000310 6a 89 9f 3d ed 93 3a bd 83 18 27 bc 46 0b 73 bd
       0.077898815 -0.04555123 -0.010198715 -0.059336923
000320 6c 17 ad bd 5d fc ac 3d 34 13 4b 3c f3 e1 1d bd
       -0.08451733 0.08446572 0.012394715 -0.03854556
000330 e0 2c 87 3d 86 0a 46 3d 53 2e 74 bc 9c b2 a4 3d
       0.06600356 0.04834988 -0.014903623 0.080418795
000340 bf 35 50 3b 01 26 b0 bd 77 1d 0f 3d 3b 26 e3 bd
       0.0031770316 -0.08600999 0.03494021 -0.11091276
000350 44 cf dd 3d 95 e4 73 3d 20 e5 1e 3e 24 25 4c 3d
       0.108305484 0.059544165 0.15517092 0.049840108
000360 96 58 b5 bd c4 fc e8 bc ca 20 89 3d 38 ae 77 bc
       -0.08854787 -0.02844084 0.06695707 -0.015117221
000370 60 ff 58 be 0f ad 66 3d c6 72 51 bc 92 09 87 bc
       -0.21191168 0.056317385 -0.012783712 -0.016484056
000380 20 5b 1d 3e f8 4d 9b bd 23 d2 9b 3d 9d eb b9 3b
       0.15366793 -0.07583231 0.0760844 0.0056738392
000390 6e eb 3e 3d 6e 94 64 bd 41 bb a2 3c c4 07 85 3d
       0.046611242 -0.055805616 0.01986468 0.06495622
0003a0 9a 6f 89 3d 0a f3 18 bd 6e 5f 1c bc e0 44 71 bd
       0.067107394 -0.037341155 -0.009544237 -0.058903575
0003b0 92 d0 ac 3d 50 ea 82 3d 72 00 cc 3d 53 52 c4 3c
       0.08438219 0.06392348 0.099610224 0.023965036
0003c0 a9 74 a7 3e c4 57 8f bd ac 3d 15 39 70 ba 04 3d
       0.32706192 -0.06999162 0.00014232722 0.032404363
0003d0 d8 5a 8f bb 0b cc a3 bc 1e 37 86 bd 1d f5 83 be
       -0.004374843 -0.019994756 -0.065534815 -0.25772944
0003e0 50 80 43 bc 8e 62 ba 3d 0f 1e 93 3d 1a 02 85 bb
       -0.011932448 0.09100829 0.071834676 -0.0040590884
0003f0 c3 54 03 3e 69 de e0 3c 61 dc 0e bc 97 48 11 3d
       0.12825303 0.027449803 -0.008719535 0.035469618

model.model.2.bias f4 [128]
000000 d2 70 ef 3d 03 8d 15 be 15 b3 94 bd 89 91 c8 3d
       0.11691441 -0.14604573 -0.0726072 0.09793384
000010 0f 3d 74 bd 6a d9 9b bc a4 de 36 3d b3 2c 4b bc
       -0.059628543 -0.01902457 0.04464592 -0.012400794
000020 aa 6e a3 3d df 2f e9 3d 54 5d c3 bd 28 ce 25 bd
       0.07980092 0.11386084 -0.09539285 -0.04047981
000030 d9 1e 01 3d 60 eb 25 3d fe 05 94 3c a2 21 b0 bc
       0.03152356 0.040507674 0.018069264 -0.021500412
000040 a6 c5 24 bd 72 0c 4a 3d cf 2d 93 3d ff b8 b7 3e
       -0.040227555 0.049328275 0.07186472 0.35883328
000050 c9 6e a6 bd d5 95 30 bf e4 91 3c be cc e1 04 be
       -0.08126599 -0.68978626 -0.18415028 -0.1297676
000060 4c 56 92 3d 63 75 8c 3d 38 1c 63 bd a4 de d6 3e
       0.07145366 0.06858327 -0.055446833 0.41966736
000070 69 65 82 bd 5d 89 3b bd 90 95 17 bd 5e fc a9 bd
       -0.06366999 -0.045785297 -0.03700787 -0.08300088
000080 96 04 1d 3b 1d a4 87 bd 7c e1 30 3d 3a de 73 3e
       0.0023959032 -0.06623099 0.04318379 0.23815241
000090 95 d9 49 be 1a 42 c3 3d 55 d1 93 3d d0 8c af 3c
       -0.19711907 0.09534092 0.07217661 0.02142945
0000a0 ef a5 89 bd 62 16 15 be ed b4 e7 bc 53 f9 a6 bd
       -0.067211024 -0.1455932 -0.028284514 -0.081530236
0000b0 a7 1d 95 3b f5 7e 88 3e c3 14 95 bd b1 b9 8b bd
       0.004550654 0.2665936 -0.072793506 -0.06822527
0000c0 5c 43 20 be bd b7 52 3d e5 98 05 bd 4a 1b 70 bd
       -0.15650696 0.051444758 -0.032616515 -0.058619775
0000d0 6c c6 99 3e 7c 88 84 bd 7a 5d ea bc ce dc ab bd
       0.30034196 -0.06471345 -0.028609026 -0.083917245
0000e0 01 1f e2 3c a0 f6 99 3e 58 d5 42 bd d2 9a b0 3d
       0.027602674 0.30070972 -0.04756674 0.0862328
0000f0 b5 39 f9 bd 04 94 ae bd 8c c5 b9 3d eb 61 25 3a
       -0.1216921 -0.085243255 0.09070882 0.00063088414
000100 37 f6 ed bb 9c 36 01 3e 38 da 02 be 6d c9 34 3e
       -0.007262017 0.12618488 -0.12778556 0.17654963
000110 d0 36 d3 3c 4f 55 f3 bd 66 7a 3e bd 20 f9 2a 3c
       0.025782973 -0.11881506 -0.046503447 0.010435373
000120 2c db ae bd 38 dc 40 bc 08 75 96 bd 94 00 c6 bc
       -0.085378975 -0.011771254 -0.07346541 -0.024170198
000130 a4 4d 9e bd 85 a0 8d bd 5e 3a 26 3e fb ba d0 3b
       -0.077296525 -0.06915382 0.16233203 0.006369946
000140 d1 41 da 3b ed 5b 91 3c 8f ed 0b 3f 29 5e d6 3b
       0.006660678 0.017744029 0.5465936 0.0065419865
000150 89 84 6c be fd ea 7d bd 5a 3b fb bd d6 9f 80 3d
       -0.23097433 -0.06199168 -0.1226718 0.06280486
000160 65 66 f6 3c 66 9b b4 3c 7f ff 11 bd 3e b1 2b be
       0.030078122 0.022046756 -0.03564405 -0.16766831
000170 0e 76 a3 bd 08 a7 a8 bc ca 88 93 bd f4 e3 f4 3d
       -0.079815015 -0.02058746 -0.07203825 0.11957541
000180 bd c3 52 3d 3b 1a 28 bd a1 8a 0e 3e 54 d5 0f 3c
       0.0514562 -0.04104064 0.1392007 0.008778889
000190 b0 04 d4 bc 97 f7 61 bb 57 fc 87 bd 24 45 d4 bc
       -0.025881141 -0.003447985 -0.06639927 -0.025911875
0001a0 12 93 90 3d bb 0a b0 3d 89 a4 f7 bd 0d ce 45 3d
       0.070593014 0.08595797 -0.120919295 0.04829221
0001b0 bf bd 4b bd c9 54 a3 bb 09 c3 a2 3c dc d2 43 3b
       -0.049741503 -0.0049844724 0.01986839 0.002988032
0001c0 21 da a2 bd c8 4e 87 3d 2a 15 8a bd 6c 11 4e bd
       -0.07951761 0.06606823 -0.06742318 -0.050309584
0001d0 fd 9c a3 3d 8a 9c a5 bd ff 88 fd 3b 29 49 c8 bd
       0.079889275 -0.08086498 0.0077372785 -0.09779579
0001e0 33 25 bc 3e 75 da 0a 3d 61 33 17 bd b3 99 a3 3d
       0.3674713 0.033899743 -0.036914233 0.079883
0001f0 55 73 bb 3c 46 de 82 bd 84 3f bf 3c 8f ab be bd
       0.022882143 -0.063900515 0.023345716 -0.09310066

model.model.4.weight f4 [128, 128]
000000 1c 38 dc 3d ee bd 36 3d 31 d7 2d 3e e0 8c 16 3d
       0.107528895 0.044614725 0.1697662 0.036755443
000010 e1 84 61 3e 05 cf 44 3e 45 95 8b 3e 67 1b 95 3d
       0.22023346 0.19219597 0.2726232 0.07280617
000020 27 da ff 3d 86 7c cd 3d e9 b3 78 3e 88 d0 cb 3d
       0.12492781 0.100335166 0.2428738 0.099518836
000030 ba f6 43 3d 96 58 2c bd 53 32 43 3e 8b 3c 5c 3e
       0.04784272 -0.04207667 0.19062166 0.2150747
000040 f4 80 8a 3d 09 42 12 3e dd fd 79 3e ef 43 4c 3e
       0.06762877 0.14283003 0.24413247 0.1994779
000050 4b 9e 2f 3e bc d2 ca bd ce 0a d9 3d 60 c4 09 3e
       0.17150228 -0.09903476 0.10597764 0.13453817
000060 ab fa 86 3e 8d d0 1a 3e f1 83 28 3e fe b8 be 3e
       0.2636312 0.15118618 0.16456582 0.37250513
000070 71 7a 3f 3e 13 f9 2a 3e 98 82 35 3e 13 71 6b 3e
       0.18699051 0.16696577 0.17725599 0.22992353
000080 20 50 f0 3d 3b da 24 3e 2c c5 f0 3d b6 fe 27 3e
       0.11734033 0.16098873 0.117563576 0.16405758
000090 ff f1 e2 3d aa 4f a7 3d 6f 7d 36 3e e9 05 27 3e
       0.11081313 0.081694916 0.17821287 0.16310848
0000a0 50 8e ef 3d 1c 30 c2 3d ed 40 64 3e a9 6c 14 3e
       0.11697066 0.094818324 0.22290392 0.14494576
0000b0 db 97 82 3e bb 68 2a 3e c7 fb 5b 3e 55 f4 81 3e
       0.25506482 0.16641514 0.21482764 0.25381723
0000c0 2d fe 02 3c 61 64 5c 3e 6f 4a 6b 3e 9f d8 5a 3e
       0.007995171 0.21522667 0.22977613 0.21371697
0000d0 0a e0 5b 3e 23 52 33 3e 1b 9a 0b 3e 33 80 3c 3e
       0.21472183 0.17511801 0.13633005 0.18408279
0000e0 ff 50 46 3d 04 be d9 bd 12 43 f4 3d 12 ea 4e 3d
       0.048417088 -0.10631946 0.11926855 0.050516196
0000f0 87 e3 33 3e 32 21 dd 3d 90 74 f8 3d 19 f6 0e 3e
       0.17567264 0.10797347 0.121316075 0.13961066
000100 e0 e7 05 3e 23 8a 51 3e e6 52 e1 3d c3 25 a4 3c
       0.13076735 0.20462851 0.1100214 0.020037537
000110 16 44 84 3d a9 93 5f 3e 2f db 3c 3e 4b 87 29 3e
       0.06458299 0.21833672 0.18442987 0.16555516
000120 85 2c fe 3d c9 e7 0f 3e 85 34 c7 bd d8 ac 80 3e
       0.12410835 0.14053263 -0.09726814 0.2513187
000130 3d 3e 7e 3d 48 51 76 3e 29 00 49 3d 05 5b 2a 3e
       0.062071074 0.24054444 0.04907242 0.16636284
000140 41 9d 03 3e 11 1e 18 3e 04 01 a5 3d 63 0d 7b 3e
       0.12852956 0.1485522 0.08056834 0.24516825
000150 f3 24 80 3c e1 1b 36 3e 72 a8 88 3e 97 8a 94 3e
       0.015642619 0.17784072 0.26691014 0.29011986
000160 7b 3e 61 3e 01 13 8a 3e 07 38 8f 3e f7 f3 0d 3e
       0.2199649 0.26967624 0.27972433 0.13862596
000170 45 92 a0 3c fb 6d 0c 3e 7c 0b 8e 3e 7f 77 1b 3c
       0.019600997 0.13713829 0.27743137 0.009488939
000180 ff a1 0f 3e 0c 6d ff 3d 6e fe 0c bd ef b0 49 3e
       0.1402664 0.12471971 -0.03442233 0.19696401
000190 f9 52 6b 3e 3f a9 1f 3e 2f cb 6d 3e 29 74 46 3e
       0.2298087 0.15591906 0.2322204 0.19380249
0001a0 63 f5 5e 3e c2 34 c4 3d 51 33 38 3e 17 1f 88 3e
       0.21773295 0.09580375 0.17988326 0.2658622
0001b0 80 b6 24 3e 9f 43 15 3e 7b af 20 3e 9c 85 cb 3d
       0.16085243 0.14576577 0.1569194 0.09937593
0001c0 81 e6 59 3e b0 42 88 bd e8 61 89 3e b7 ad 8b 3e
       0.21279337 -0.06653345 0.2683251 0.2728097
0001d0 08 ad da 3d 9f 95 59 3e c1 ad 90 3e 13 1a 4d 3e
       0.10677534 0.21248482 0.28257564 0.20029478
0001e0 49 f7 84 3e e1 38 42 3e 87 af 66 3e 12 6d 8f 3d
       0.25969914 0.1896701 0.22527896 0.070032254
0001f0 f9 af 76 3e 0f c5 24 3d 29 4f 0d 3e 09 04 6e 3e
       0.24090566 0.040226992 0.13799728 0.23243727
000200 2e c6 48 bc 4e 58 02 be 31 f2 82 3e 86 77 bb 3d
       -0.012254281 -0.12728998 0.25575402 0.09153657
000210 aa 8f 1f 3e 34 fd 2d 3e 04 56 d5 3d 7e 97 0e 3c
       0.15582147 0.1699112 0.10416797 0.008703111
000220 18 a8 9a bd 21 04 b5 3d 32 87 6c 3e 94 c3 c7 bd
       -0.075515926 0.08838678 0.23098448 -0.097541004
000230 1a cd fb 3c b4 6e 9e bc a4 7c df 3d 95 de d5 3d
       0.030737448 -0.019339897 0.10912445 0.10442845
000240 86 9f 22 be c3 c0 83 3e a4 d1 45 3e 20 5c 84 bd
       -0.15881166 0.25733003 0.19318253 -0.06462884
000250 73 ed f9 3d 4a 76 ff bd 14 88 35 3e df 18 6e 3d
       0.12203493 -0.12473734 0.17727691 0.058129188
000260 72 eb 07 3e 1e 99 78 3e 1e b1 33 3e 99 45 39 3e
       0.13273409 0.2427716 0.17548034 0.18092956
000270 0b 15 03 3e 6c ba 33 3e 6d 50 88 3d 8b 45 89 3e
       0.12800996 0.17551583 0.06655965 0.2681087
000280 47 64 85 3e aa f9 1f 3e e2 9a 0b 3e 5e 03 9a bd
       0.26053068 0.15622583 0.13633302 -0.075201735
000290 49 e1 97 3d 1c 99 5a 3e 34 f1 dd 3d a2 94 7c 3e
       0.074160166 0.21347469 0.108370215 0.24666074
0002a0 f2 65 7f 3e 74 9f d5 3d f8 b4 bf 3d 4c 2b 7e 3e
       0.24941233 0.10430804 0.09360689 0.24821204
0002b0 a4 de 28 3e 35 a6 48 3d 3e 87 41 3e 08 58 21 3e
       0.1649118 0.048986632 0.18899247 0.15756238
0002c0 c0 d8 d8 bc ff 42 83 3e 6d 81 87 3e 64 db 43 3e
       -0.026470542 0.2563705 0.26465932 0.1912666
0002d0 13 26 45 3e b1 24 7c 3c 70 16 1e 3e 62 b5 33 3e
       0.19252805 0.015389607 0.15438247 0.17549661
0002e0 4c bc 08 3e 8c 7d b8 bd 96 5c 09 3e f2 ae bd 3c
       0.1335308 -0.09008321 0.13414225 0.02315471
0002f0 e0 d1 67 3c 33 26 04 bd ea 00 b0 bd 2f a4 81 3e
       0.014149159 -0.032262992 -0.08593924 0.25320575
000300 1a bd 5b 3e 2a 51 3c bc e4 1f 90 3d cc 2b 54 3e
       0.21458855 -0.01149396 0.07037333 0.20719832
000310 d5 32 fe 3d 00 72 d9 bc f0 15 29 3e 56 1e 80 bd
       0.12412039 -0.026543617 0.16512275 -0.06255786
000320 0b a4 5e bd 8c c9 35 3e a0 b5 25 bc ae 0e 12 3e
       -0.054355662 0.17752665 -0.010114104 0.14263412
000330 aa 01 13 bd 93 42 99 3d 50 db e2 3d 69 66 a0 3d
       -0.03589026 0.07483401 0.11076987 0.07832033
000340 06 16 8a bc a4 dd 0b 3e 61 19 0d bc e0 7e 19 3e
       -0.016856205 0.13658768 -0.008612008 0.14989805
000350 d2 25 86 3d e0 a0 63 3e 64 9f 6b 3e 8b 5d 86 3e
       0.065501824 0.22229338 0.23010021 0.26243243
000360 c2 bf 4d 3e 0e 0e 69 3e 79 9a 85 3e b5 bb fc ba
       0.20092681 0.22759268 0.26094416 -0.0019282015
000370 d6 d5 2e bd 04 79 7b 3e 76 21 2b 3e f6 20 9f bd
       -0.0426844 0.24557883 0.16711983 -0.07769959
000380 64 53 0f 3e 33 87 85 3e f3 1e 2c be b4 3e d8 3d
       0.13996655 0.2607971 -0.16808681 0.10558835
000390 ed af b3 3d bb 25 83 3e 8e be 7b 3e 27 1a c0 3d
       0.087737896 0.25614724 0.2458441 0.09379988
0003a0 68 83 59 3e fa 97 13 3d 7a 0f 5f 3e 62 75 2d 3e
       0.21241534 0.036033608 0.21783248 0.16939309
0003b0 eb f9 bf 3d af 9c 02 3e e4 4a 23 3e 7e 92 12 3e
       0.0937384 0.12755083 0.15946537 0.14313695
0003c0 1a 94 81 3e 7a e5 32 3c ba 62 4a 3e ba 79 cb 3d
       0.25308305 0.010918969 0.19764224 0.09935327
0003d0 9f 94 89 3e ca a7 05 3e ff d0 84 3e e0 c5 83 3e
       0.268712 0.13052288 0.259407 0.25736904
0003e0 de 01 39 3e 4a 88 0b 3e 1a 38 5a 3e 35 65 ac bc
       0.18067119 0.13626209 0.21310464 -0.021044353
0003f0 2c 6f cc 3d 1e 56 1e 3e 5a b2 62 3e 14 55 6c 3e
       0.09982142 0.15462539 0.22138348 0.2307933

model.model.4.bias f4 [128]
000000 ff a1 5d be e4 9a 68 be 41 2b 89 be 5d 70 4e 3e
       -0.21643828 -0.22715336 -0.26790813 0.2016005
000010 65 48 2c be dd 10 03 be 66 c1 57 be 0d 7b 87 be
       -0.16824491 -0.12799402 -0.2106987 -0.26461068
000020 84 f7 27 be 65 cb 82 be de 19 1a 3e 4b b1 7d be
       -0.16403013 -0.25545803 0.1504893 -0.24774663
000030 05 ad 8a 3d f5 91 0a be 00 3f 80 bd 44 7f 17 be
       0.06771282 -0.1353224 -0.06262016 -0.14794642
000040 7d 14 28 be a0 f1 87 be c9 9b 23 be 11 8b 89 be
       -0.16414066 -0.26551533 -0.15977396 -0.26863912
000050 7b 93 76 be 82 72 aa 3e 05 a1 3d be 06 5b 47 bd
       -0.24079697 0.33290488 -0.18518455 -0.04867079
000060 4a 5c f5 bd a8 2d 0f be e7 2e 5d be c3 c3 97 bd
       -0.11980493 -0.1398226 -0.21599923 -0.074103855
000070 85 2c 05 be 4d a3 2b be 39 bf bb bd b2 04 4f 3e
       -0.13005264 -0.16761513 -0.09167332 0.20216635
000080 30 f7 9e bd 0e 12 08 be f0 55 20 be 61 98 22 be
       -0.07761991 -0.13288137 -0.15657783 -0.1587844
000090 21 db 5c bd 60 fa 74 be ae 6a f5 bd 42 dc 9d 3e
       -0.053919915 -0.23923635 -0.11983238 0.30832106
0000a0 13 95 cf bd 46 ef 56 be 3f e2 80 bd dd 91 b4 bd
       -0.101358555 -0.20989713 -0.06293153 -0.08816884
0000b0 29 6f f3 bd 93 37 65 bd cd 51 a0 be f8 66 0f be
       -0.118864365 -0.055961203 -0.3131241 -0.14004123
0000c0 61 c3 b1 bd c8 e7 14 be 75 81 60 be 9d 60 73 be
       -0.08679844 -0.14541543 -0.21924384 -0.23767324
0000d0 ce c3 1a be 16 ab c3 bd b3 93 c5 bd 10 ad 2b be
       -0.15113756 -0.095541164 -0.09647312 -0.16765237
0000e0 79 30 84 be 3f 41 0a be 77 49 66 be f0 f8 1a be
       -0.25818232 -0.13501452 -0.22488962 -0.15134025
0000f0 77 c1 14 bd 1c db a5 bd d2 71 ab bd 50 9e 13 be
       -0.036317315 -0.080984324 -0.08371319 -0.1441586
000100 9c 8d 85 be da 9a 9e 3c 54 42 75 3e 06 8e 41 be
       -0.26084602 0.019360948 0.23951083 -0.18901834
000110 8c 52 99 3d a4 fe c6 bd f8 07 91 be 10 6d 4c be
       0.07486448 -0.097165376 -0.28326392 -0.19963479
000120 cc af 4e be be 56 19 be 02 4d e1 bd f3 e4 85 be
       -0.20184249 -0.14974496 -0.11001016 -0.26151237
000130 db 0d c9 bd 70 91 1b be 5a c1 f6 bd 01 bc 1a be
       -0.09817096 -0.15192199 -0.12048598 -0.1511078
000140 ca ac 43 be 2a 28 36 be 3f dc 43 be 37 2e 68 be
       -0.19108883 -0.17788759 -0.19126986 -0.2267388
000150 e5 f9 dd 3e 4f 30 aa bd 68 de 5c be b5 1e 88 be
       0.43354717 -0.083099954 -0.21569216 -0.26585928
000160 9a ae 82 bd 09 ac 5f be be 6d a4 3e 25 d7 70 bd
       -0.06380959 -0.2184297 0.32114977 -0.058798928
000170 18 40 10 be af 85 a3 3e 66 1e 75 be 3f e3 73 be
       -0.1408695 0.3193793 -0.23937377 -0.23817156
000180 17 9c 54 be b1 62 85 be 6b c0 55 be 52 74 02 3c
       -0.20762669 -0.26051858 -0.20874183 0.007962303
000190 3f 5e c2 bd 55 09 cb bd 2b 8f a1 bd ae bc 40 be
       -0.09490632 -0.09913889 -0.07888635 -0.18821976
0001a0 46 72 db bd b0 ac 57 be b6 45 2d be fb 4c c7 bd
       -0.10715155 -0.21061969 -0.16921124 -0.0973148
0001b0 c9 61 8b be 09 e8 59 be 53 5f d4 3e 05 58 53 be
       -0.27223042 -0.2127992 0.41478977 -0.20639046
0001c0 22 e2 9e 3e 53 69 a5 bc cc 2b 19 be 41 7e 68 be
       0.310319 -0.020191824 -0.14958113 -0.22704412
0001d0 e9 33 66 be 59 e3 78 be 84 42 ab bc 0e 4a b8 bd
       -0.2248074 -0.24305476 -0.02090574 -0.089985
0001e0 cf c7 8a 3e 73 11 b5 bd 85 38 fc bd 52 bd 45 be
       0.27105567 -0.08841219 -0.12315468 -0.19310501
0001f0 e1 55 f5 bd d3 2a 5a be 18 3b e7 bd 72 07 56 be
       -0.11979271 -0.21305399 -0.11290568 -0.20901278

model.model.6.weight f4 [128, 128]
000000 b9 84 aa bc 63 d7 cb bd c1 5f c3 3d de e4 13 3e
       -0.02081524 -0.09953191 0.09539748 0.14442775
000010 57 c5 be 3d b5 37 6e 3d fd c1 96 bd 29 21 88 3d
       0.09314983 0.058158595 -0.07361219 0.0664695
000020 3f 18 8b 3d fd 4c 1a bd 3f c6 30 be 25 2f 24 3d
       0.06791734 -0.037671078 -0.17263125 0.040084023
000030 53 d0 4d 3c bf bc de 3d 0f 75 d4 38 51 e0 41 3d
       0.012561875 0.10875844 0.000101307516 0.047333065
000040 1f b9 19 3e c6 32 11 be 13 86 83 bd 09 f6 0d be
       0.15012024 -0.14179525 -0.06422057 -0.13863386
000050 0c a4 99 bd 68 76 33 bd 1b 69 43 bd 6e 08 f1 3d
       -0.075019926 -0.043814093 -0.04770766 0.11769186
000060 17 8d 1f be a3 0c e2 3d d3 da 8d bd 03 fa 2e 3e
       -0.15581165 0.110375665 -0.06926503 0.1708756
000070 af 04 2f 3e d7 d3 3f 3d 23 f9 0f bd c3 78 27 3d
       0.1709163 0.046832886 -0.035149705 0.04088665
000080 02 69 0f be 09 e6 cd 3d cd 77 ea 3d 9b 43 51 bd
       -0.14004901 0.10053641 0.114486314 -0.051089864
000090 49 63 93 bc 3d 47 ab 3d 95 f0 06 3e a1 95 ab 3a
       -0.017991679 0.08363197 0.13177712 0.0013090858
0000a0 2b 86 5a bd 3f 9c a2 bc cf 37 bf 3d af 2d 17 be
       -0.05335061 -0.019849895 0.093368165 -0.1476352
0000b0 24 04 02 3e 83 9a 1e 3e d9 c9 45 3c d7 fa 1f bd
       0.12696892 0.15488629 0.01207205 -0.03905758
0000c0 0f 4b 81 bd fd fe bf bd b9 9c 10 be fd 79 c9 3d
       -0.063131444 -0.09374807 -0.14122285 0.098377205
0000d0 9b 21 10 be 51 b5 50 3d e9 bf 2f bd 15 cf 17 be
       -0.1407532 0.050954167 -0.04290763 -0.1482509
0000e0 7b 24 d5 3c 38 02 58 3d a1 f9 e3 3d 21 a3 82 bd
       0.026018372 0.05273649 0.11131597 -0.063787706
0000f0 e7 88 67 3d 6b 31 24 bd b5 87 a3 bd 0b 75 14 3d
       0.056527045 -0.04008619 -0.079848684 0.036244433
000100 49 b0 a9 bd 7b a8 a4 ba 38 f2 d8 bc 67 20 13 3e
       -0.08285577 -0.0012562418 -0.026482686 0.1436783
000110 91 25 cc 3d 6b e4 b4 bd 1d f2 43 bc 89 f4 57 bd
       0.09968103 -0.0883263 -0.01195958 -0.05272344
000120 b3 df 14 be 4e ca 7a 3c 0f 4b 03 bd 0f 36 15 3e
       -0.1453846 0.015307022 -0.032054003 0.14571403
000130 69 cd d5 3d 37 b4 22 3e 3b f6 a9 bd 1f 3d e6 3c
       0.104395695 0.15889059 -0.08298918 0.028105317
000140 23 c6 71 3d 76 6f ed 3b 99 5a cc 3d 13 08 8c bd
       0.05902685 0.007245953 0.09978218 -0.068374775
000150 4a 7c 8c bb 8b be 87 bd 8a a3 26 bb b7 75 aa bd
       -0.0042872773 -0.0662814 -0.0025427067 -0.083232336
000160 d7 6b 1a 3d 37 5f 5b bd 35 cd 81 3d e1 17 e6 3d
       0.0377005 -0.0535576 0.06337968 0.11235023
000170 bb db b2 bd aa ee fc 3d 51 34 e0 bd 99 c7 e9 3d
       -0.087333165 0.12350209 -0.109474786 0.11415023
000180 1b 1a 06 3e de 63 01 bd eb 62 c3 3d 4a 59 59 ba
       0.13095896 -0.03158938 0.095403515 -0.0008291198
000190 93 bc 3c bd b9 7f e3 3c 73 73 c7 bd eb 76 e7 bd
       -0.046078276 0.027770864 -0.09738817 -0.11301979
0001a0 95 65 8d bd fd d5 b4 3d b7 f4 15 bd 83 09 07 3e
       -0.06904141 0.088298775 -0.03661033 0.13187222
0001b0 5f c8 21 3e 29 2d dc 3d ee 75 a7 be 0d 26 a2 bd
       0.15799092 0.10750801 -0.3270716 -0.07917414
0001c0 8f 2c d3 bd e6 18 cc bd e9 9a c7 bc c9 b9 82 bd
       -0.10311233 -0.099656865 -0.02436586 -0.06383092
0001d0 2d 58 13 3d 21 1a 49 3e c7 c8 b5 3c 91 27 76 bd
       0.035972763 0.19638874 0.022190465 -0.060096327
0001e0 b8 2c 3b be 7f 38 9f bc 95 5d 73 bd 83 56 97 bd
       -0.18278778 -0.01943612 -0.05941542 -0.07389548
0001f0 4b 70 c4 3d e3 b1 bd bd 55 f2 c6 bd 47 b1 49 3e
       0.09591731 -0.09262445 -0.0971419 0.19696532
000200 f0 11 8e 3e 80 f1 59 3e ef 76 2f 3d c6 e3 b6 bd
       0.2774806 0.21283531 0.042838033 -0.08930163
000210 3a 0f ca 3d be 99 be 3d 6c 84 7b 3e e2 51 2a 3e
       0.098661855 0.09306668 0.24562234 0.16632798
000220 80 85 68 3c 74 37 8c 3e 06 b9 b9 bd bc 25 27 3e
       0.014191985 0.27386057 -0.090684935 0.16322988
000230 ae 00 38 bc 01 62 9e 3c a9 9a 0e bd 46 ec 2b 3e
       -0.011230631 0.019333841 -0.034815464 0.1678935
000240 7e bb c5 3d 3f 8f 2c 3e 12 79 33 3e 42 8f 34 3e
       0.09654902 0.16851519 0.17526653 0.17632774
000250 ae dc bf 3d ec 19 83 3d 1c 87 5b 3d 86 76 98 3d
       0.09368263 0.064014286 0.053595647 0.074444816
000260 c2 c1 90 3e a8 39 e6 3d 7c a8 42 3e ce 32 f1 3d
       0.28272825 0.11241466 0.19009584 0.11777268
000270 64 9a 7f 3d 3a 24 a1 3d be 16 29 3d 46 29 d8 3d
       0.062403098 0.07868238 0.041281454 0.10554747
000280 3e ef 8d bd 46 40 f5 3c a0 b3 ac 3d 8c cd 25 3d
       -0.069303975 0.029937875 0.08432698 0.040479228
000290 ef 69 11 3e 69 78 03 3d 52 65 ca 3d 29 50 47 bf
       0.14200567 0.032097254 0.098826066 -0.7785669
0002a0 72 17 09 3e 67 59 8f 3e 40 27 2a 3b 1c ba 51 3e
       0.1338785 0.27997896 0.0025963336 0.20481151
0002b0 78 04 02 3e 8a 4c db bb 5e 89 15 3e 9e 85 49 3e
       0.12697017 -0.006692474 0.14603183 0.19679877
0002c0 30 0b 32 3e e8 6d e7 3d f4 46 9d 3d e6 8b 89 3d
       0.1738708 0.1130026 0.07679549 0.06716137
0002d0 04 0b 9b 3d 9a 2d 10 3c 5e ca f4 3d 4e b6 2e 3e
       0.075704604 0.008799935 0.11952661 0.17061731
0002e0 c1 a0 b7 bb 04 db 24 3c 48 e0 26 3e 1e b8 43 3c
       -0.00560388 0.010061983 0.16296494 0.011945752
0002f0 ae 2b cb 3d 14 60 ee 3c 0e bb dd 3d c4 47 5b 3e
       0.099204406 0.029098548 0.108266935 0.21414095
000300 1e f1 24 3e 08 c3 65 bf 1e 3a ca 3c 98 c6 c1 3d
       0.16107604 -0.8975072 0.024685916 0.09461707
000310 7c 08 7b 3d 1e 2e d6 3d 07 a7 1f 3e 90 af 17 bd
       0.06128739 0.10458015 0.1559106 -0.037032664
000320 4a ae e6 3d 6c 2a c6 3d ee c6 38 3e c2 0a 7d 3d
       0.11263712 0.0967606 0.18044636 0.061777838
000330 36 48 79 3c c0 75 b3 3d 45 be 8f 3e d6 64 b5 3d
       0.01521497 0.087626934 0.28074852 0.088571236
000340 78 55 92 3d 35 cf 04 3e 14 57 0c 3e 28 83 3c 3e
       0.07145208 0.12969668 0.13705093 0.18409407
000350 a3 dc 98 3d 5b a3 0c 3e 88 5d 05 3e 6d 9c 1b 3e
       0.07463958 0.1373419 0.1302396 0.1519639
000360 42 a6 86 bc 13 40 28 3d ad de 57 3e 91 fc 1b 3d
       -0.0164367 0.04107673 0.21081038 0.038082663
000370 f1 f5 85 3e a6 4c b1 3c 31 06 07 3e 2a 1f 70 3d
       0.261642 0.021642994 0.13185956 0.05862347
000380 24 07 06 3e d6 34 e0 3d fc ca dd 3d d6 d4 19 3e
       0.13088661 0.10947578 0.10829732 0.15022597
000390 67 80 10 3e 7e 81 ce 3d ec 4f 1f 3e 74 4c c8 3d
       0.14111482 0.100832924 0.15557832 0.09780207
0003a0 85 44 90 3e 7d 0e ea bb 2e 37 42 3e 49 52 4e 3d
       0.28177276 -0.0071428404 0.18966362 0.050371442
0003b0 4a c6 c7 3d e3 6c 05 3e 28 c3 4c 3d 0c f6 57 3e
       0.097546175 0.13029818 0.049990803 0.21089953
0003c0 ab 5a 0c bd 01 32 c0 bb 8a 74 35 3e 7c d6 65 3e
       -0.034266155 -0.005865336 0.17720237 0.224451
0003d0 1a 44 c1 3d e4 83 04 3e 40 79 6c 38 46 92 14 3e
       0.094368175 0.12940937 5.6379708e-05 0.14508924
0003e0 55 85 a4 3d 2e d1 2a 3e fc c1 e8 3d 00 f7 7c 3e
       0.080332436 0.16681358 0.113651246 0.24703598
0003f0 a6 58 1e 3e e4 c7 ec 3d d9 79 82 3e 14 35 fd 3d
       0.15463504 0.115615636 0.25483587 0.123636395

model.model.6.bias f4 [128]
000000 8a a7 d3 3d 1e b6 82 be cc 63 b8 3c 45 c7 7d 3d
       0.1033469 -0.2552957 0.022508524 0.061957616
000010 08 53 ff bd 3b dc 3d be 5f be 5f be 6a 74 ee be
       -0.12467009 -0.18541043 -0.21849965 -0.46573192
000020 19 b3 4c be 26 70 80 3e fe 5b 93 bc 8b 4f 09 bd
       -0.19990195 0.25085562 -0.017988201 -0.033523124
000030 81 1d e2 3d d0 d8 e4 3c 15 69 32 be 53 31 03 be
       0.11040784 0.027935416 -0.17422898 -0.12811784
000040 e3 74 cc bd b8 36 3a 3e 39 08 e7 3d a9 4e ae bd
       -0.09983232 0.18184936 0.11280865 -0.08511097
000050 40 4b 6a be 2c 8d 9e 3d 7a f8 da bd 07 cb 4d bd
       -0.22880268 0.0774177 -0.106919244 -0.05024245
000060 b6 7a da bd 3f 6c 4f be 4d dd 5a 3d 63 09 2c be
       -0.106679365 -0.20256136 0.053433705 -0.16800456
000070 31 4b 27 be 1f 2b 11 be 2d 38 a2 bd 98 07 1c bd
       -0.16337277 -0.14176606 -0.07920871 -0.03809318
000080 76 de 49 be cc ae 5b be 1c 98 d1 bc 0c 67 63 37
       -0.19713768 -0.21453398 -0.025585227 1.3554247e-05
000090 be 6e 0b be b9 2e 84 bd ae a1 55 be 6c 38 ad be
       -0.13616464 -0.06454224 -0.20862457 -0.3383211
0000a0 0e 7e f8 bc 80 70 26 be c1 5e 16 be 49 c4 05 be
       -0.030333545 -0.16253853 -0.14684583 -0.13063158
0000b0 40 6b 8e be ee 91 e2 bd 4c bd e4 3d 6d 88 67 be
       -0.278162 -0.1106299 0.11168918 -0.22610636
0000c0 76 53 f6 bd cc 4c be bd 1b cd f0 bd 63 76 dd bd
       -0.12027638 -0.092919916 -0.11757871 -0.10813596
0000d0 bc 39 6f be ca ca 02 bd c6 06 43 3d 51 9a 90 3e
       -0.23361868 -0.031931676 0.04761388 0.28242734
0000e0 f2 b7 76 3d d5 2f ba bd 4f 87 34 be 1f f7 0a 3d
       0.060234018 -0.090911545 -0.17629741 0.03392708
0000f0 53 8a 50 be c6 75 41 3d 84 64 c9 3d 24 67 53 be
       -0.20365267 0.047231458 0.09833625 -0.20644814
000100 a8 cb a0 3b cb f9 8f be 0d 86 bc bd 61 fa 17 be
       0.00490709 -0.28120264 -0.09205256 -0.14841606
000110 c3 ea b5 bd c1 d8 d2 bd 96 03 80 3e 5a 73 7a be
       -0.08882668 -0.10295249 0.25002736 -0.24458066
000120 21 df 31 be d4 af e0 be 12 df 47 bd 4b 18 79 be
       -0.17370273 -0.43884146 -0.04879672 -0.24325673
000130 dc bd 54 be cc aa 76 be cb 36 32 be d0 92 bb bd
       -0.2077555 -0.24088591 -0.17403714 -0.09158862
000140 c0 dd 36 3d d7 03 21 be 61 05 7d 3d 32 9e e8 3d
       0.04464507 -0.15724121 0.061772708 0.11358298
000150 b3 da 13 3d 50 03 4d be 4e 76 15 3e 88 02 24 be
       0.03609724 -0.20020795 0.14595911 -0.1601659
000160 0d c0 cf bd 88 1c 1d be 01 88 59 be e8 db 48 be
       -0.10144053 -0.15342915 -0.21243288 -0.19615138
000170 6e 7f 81 be e7 d5 dd bd f2 2a a7 bd 9e 6d ec bd
       -0.25292534 -0.10831814 -0.08162488 -0.11544345
000180 4c 6d af be 2f a3 3a 3e 5f 5c 72 bc b3 67 14 3e
       -0.34263074 0.18226312 -0.014792531 0.14492683
000190 ea fc 4f be db 08 0d be 42 97 e0 3d 2c b1 a8 ba
       -0.20311323 -0.1377291 0.1096635 -0.0012870184
0001a0 58 43 34 3e ea bc f6 bd 0f 2d c1 bd 41 51 2f be
       0.17603815 -0.12047751 -0.09432422 -0.1712084
0001b0 02 15 92 be c3 05 3f be a5 27 16 3e b0 71 1f 3e
       -0.28531653 -0.18654542 0.1466356 0.15570712
0001c0 5f ed 1c be 20 43 2f be b7 12 e3 3d dd b9 a2 be
       -0.15324925 -0.1711545 0.11087554 -0.31782427
0001d0 2a f0 c0 bd 5c 0d 41 3c a9 64 7e bd ab 55 18 be
       -0.09420808 0.01178297 -0.062107716 -0.1487643
0001e0 c9 d9 fc bd 1e 35 7e be 67 b0 87 bd 36 2e 7c bd
       -0.12346227 -0.2482495 -0.06625443 -0.061567508
0001f0 6b 76 2b 3c 29 58 b2 bd df 07 45 be d5 6d 0c be
       0.010465245 -0.087082215 -0.19241284 -0.13713773

model.model.8.weight f4 [8, 128]
000000 b1 4b 77 bb 3c a6 49 bd f1 bb e9 bd 5a c5 29 3b
       -0.0037734325 -0.0492308 -0.114128 0.0025904984
000010 40 10 d4 bc 35 39 27 bd de d7 8f bd b4 b1 99 3b
       -0.025886655 -0.04082604 -0.07023595 0.0046903733
000020 04 0e c7 bd 33 ee 85 bb 8a 2c 3e bc e6 3f c0 bd
       -0.0971947 -0.0040872335 -0.011607299 -0.09387188
000030 f2 66 d8 3d c7 39 85 3c 75 6e 84 bc d9 8d 88 bc
       0.1056651 0.016262902 -0.016165951 -0.0166692
000040 31 a1 9b 3c 60 41 a6 3d f1 f9 28 3d 74 06 cf bd
       0.01899776 0.08117938 0.041253988 -0.10108653
000050 a3 7e be bc d3 a7 78 bc 43 c3 e4 bd 18 42 c9 bb
       -0.023253744 -0.015176731 -0.11170056 -0.006141912
000060 3b b4 20 bd e1 e3 03 bb 6d 45 4e bc 0a 8e 22 be
       -0.03923438 -0.002012484 -0.012589795 -0.15874496
000070 88 6a a7 bd 9b 28 89 bd 68 f6 15 bd f1 07 d2 bc
       -0.08174616 -0.06697198 -0.036611944 -0.025638552
000080 29 c7 5a bd 8a 5b ea bd e6 6d 97 bd 3d 73 80 3d
       -0.05341259 -0.11443241 -0.07394008 0.0627198
000090 25 97 94 bd cc 4c 91 bd 8d 77 a7 bb b0 47 15 be
       -0.07255391 -0.07094726 -0.005110687 -0.14578128
0000a0 14 6b 18 bd a0 04 76 bd 87 68 1a bd c4 1b 73 3c
       -0.037211493 -0.060063004 -0.03769734 0.014838163
0000b0 85 bd d2 bd 01 13 b1 bc ad 55 65 bd 4b 17 ce 3b
       -0.10290054 -0.021615507 -0.05598991 0.006289398
0000c0 8b fc cf bc 98 6f 41 bd 1e f4 96 bd 65 15 97 bd
       -0.025388977 -0.047225565 -0.073707804 -0.073771276
0000d0 37 df 84 bd 11 61 91 bd b8 f5 23 3d c1 06 85 3c
       -0.06487887 -0.07098592 0.040029258 0.016238572
0000e0 a8 8f 88 3d 90 84 63 bd 13 0e 16 bd 00 60 f8 3c
       0.06668025 -0.055546343 -0.036634516 0.030319214
0000f0 01 3c 06 be 8d 60 8a 3d c0 75 80 bd 39 9c 10 bd
       -0.13108827 0.06756697 -0.06272459 -0.035305236
000100 f4 cd 40 bd 0e 5e 5e bd 25 cc 8a 3d 28 c0 dc 38
       -0.047071412 -0.054288916 0.06777219 0.000105262094
000110 c6 9a 7d bc 7c 99 25 3d ab 22 27 3d 30 d2 6f bd
       -0.015478795 0.040429577 0.040804546 -0.05855006
000120 4e ec 0b bb f2 de 4c bd e9 d1 01 bc 06 37 5f bd
       -0.0021350565 -0.050017305 -0.007923582 -0.054495834
000130 06 b8 dd bd 03 24 c9 bd ac 89 86 3c 15 60 e6 3b
       -0.10826115 -0.09821322 0.016423069 0.007030497
000140 14 b9 84 3c d5 c9 e5 bd 5e c1 63 bd 9b 82 bd bb
       0.016201533 -0.11220137 -0.05560433 -0.0057833917
000150 9a c5 7a 3c d7 04 72 3c 85 df da 3b 88 3b 94 3b
       0.015305901 0.014771662 0.0066794776 0.0045236982
000160 0c fa 96 bd 27 1c ba bd 3b 7c 5c bc 45 72 9c bd
       -0.073719114 -0.09087401 -0.013457353 -0.07638983
000170 88 11 63 bd 40 56 97 3c 73 f8 76 3c 6d e9 06 3c
       -0.05543664 0.018473744 0.015073883 0.008234364
000180 e2 e1 db bd b3 ac 22 be 06 a3 cd 3c cd 56 09 3d
       -0.10736443 -0.15886192 0.02510215 0.033530045
000190 d4 29 e3 3c 5c f1 b2 bd ee 80 25 3e 1a f0 b4 bb
       0.027729906 -0.08737442 0.16162464 -0.0055217864
0001a0 d7 74 38 bc 1c 66 f6 3c 2c fe a5 bd 09 4d c7 bd
       -0.011258326 0.030077986 -0.0810512 -0.0973149
0001b0 f3 a3 82 3b 11 fd e3 bd a1 f4 99 bd 97 6d 08 3d
       0.0039868294 -0.11132253 -0.075173624 0.033307638
0001c0 41 60 c1 bd 59 e3 16 bd 48 07 2f ba ef 81 82 bd
       -0.09442187 -0.03683791 -0.0006676805 -0.06372439
0001d0 14 14 c2 bd 0f 0a 3c bd aa a3 80 bb 41 21 98 bc
       -0.09476486 -0.04590803 -0.0039257603 -0.018570544
0001e0 01 f5 e0 bc c2 ce 6e bd b2 e1 1c be 36 e2 7c bc
       -0.027460577 -0.05830265 -0.15320471 -0.015434792
0001f0 13 70 9a bd 1f ea 86 bc c3 03 4c 3d 65 2d 06 3d
       -0.07540908 -0.01646906 0.049808275 0.032758135
000200 69 a5 49 bb ed 3d 91 3d b3 53 cc bc bb 47 2b bc
       -0.0030768758 0.070918895 -0.024942255 -0.010454114
000210 22 b1 81 ba 11 a3 84 3d 30 17 57 3c eb 93 9c 3a
       -0.0009894709 0.06476415 0.013128087 0.0011945938
000220 52 d4 1b bc 49 5c fe b9 c2 1e bf 3c b3 70 df 3d
       -0.00951107 -0.00048515413 0.023330096 0.109101675
000230 50 91 12 bb f6 52 87 b9 a3 09 77 bd 93 bc 62 3c
       -0.0022364445 -0.00025811017 -0.060311925 0.013838905
000240 d9 d0 e4 bc c9 d7 8b bc 19 09 1f 3d 15 71 84 bc
       -0.027931618 -0.017070668 0.038827036 -0.016167203
000250 a7 06 fb 3b 77 46 6f bc ea 50 39 3d 8b bf 21 3c
       0.007660705 -0.0146042025 0.04524318 0.009872328
000260 72 f4 f8 39 1d 71 88 3c 81 fc cf 39 52 75 62 bd
       0.00047484372 0.0166555 0.00039670247 -0.055287667
000270 a0 35 d8 bb a7 f3 cd b9 c7 90 67 bc b1 44 47 bc
       -0.0065981895 -0.00039282182 -0.014133639 -0.012162373
000280 07 e3 8f bc 8b 20 cf bb 5e 6b d0 3c 1c 51 09 bd
       -0.01756431 -0.006321018 0.025441822 -0.033524618
000290 67 21 00 3d 56 a1 fb 3c a6 81 6a 3c a7 14 a8 3d
       0.031281855 0.03071658 0.014313137 0.08207064
0002a0 76 f0 0f bb d5 56 04 ba eb 66 0c 3d d6 1c 7d 3c
       -0.0021963394 -0.00050483394 0.034277838 0.01544877
0002b0 14 2b 30 3c 5b 83 32 bc 6f 7e 15 3a 61 09 54 3c
       0.010752458 -0.010895575 0.0005702739 0.012941689
0002c0 1e 1b e1 3b a6 a7 bf 3b fd 4a 4b bc 38 f0 c7 bc
       0.0068696877 0.0058488427 -0.012408015 -0.024406537
0002d0 1a 14 83 bc 14 88 30 bd 5b ed 35 3c ea 5c 7f 3c
       -0.016000796 -0.043098524 0.011103953 0.015586117
0002e0 64 21 f8 bc c5 5c 30 3d 5b 42 3d bc 80 f2 41 bb
       -0.03028936 0.043057222 -0.011551465 -0.0029594004
0002f0 c8 97 13 bd d8 81 b8 bb b9 fe 1e bc ea 88 64 3c
       -0.03603342 -0.005630713 -0.009704285 0.0139486585
000300 cd 01 04 3b 04 61 c6 3c 69 24 4d 3d 7a 21 00 bd
       0.0020142675 0.024216183 0.05008355 -0.031281926
000310 43 b4 9b bb ed 9d 7e bd b7 69 03 3d 76 9c 8b bc
       -0.0047517135 -0.06216233 0.03208324 -0.01704238
000320 13 d6 1e bd 9d 9c 27 3b 5b 6f 87 3c f7 05 21 bd
       -0.038778376 0.0025575527 0.01653259 -0.03931233
000330 a0 07 6c 3d 03 ab 71 bd f1 06 49 3b 82 67 3e 3c
       0.05762446 -0.05900098 0.0030674303 0.011621358
000340 7b 3a a6 bb 3b b1 b0 bd bd 45 c6 bc 8c ec 54 3c
       -0.0050728894 -0.08627554 -0.024203176 0.01299585
000350 43 7a 74 3b ae 30 87 3d a3 c1 ef bc ee 47 34 3d
       0.003730432 0.06601082 -0.029267138 0.04401391
000360 c0 e6 85 3c bb 8e 87 3d 59 92 22 bd 24 ca 9e bc
       0.016345382 0.066190206 -0.03969035 -0.019383498
000370 ac 0b 06 bd 4f ca e1 bc 61 f1 aa 3b 08 26 2e bd
       -0.032725975 -0.027562289 0.005216763 -0.04251674
000380 07 4b 03 bd 6d 29 f3 bb 3d 25 1f 3c df 38 56 3c
       -0.032053974 -0.00742071 0.009713468 0.013075083
000390 d8 42 cc 3c 51 cf b4 bc e9 20 10 bd 18 b1 06 bc
       0.024934217 -0.022071512 -0.035187636 -0.008220933
0003a0 50 95 fc 3b 4f cb 36 3c ec c7 53 3d 21 81 d4 bc
       0.007708229 0.011156871 0.051704332 -0.02594048
0003b0 16 2e 1b bc 9e 14 b5 bb 3b 32 24 39 3a 0b f9 ba
       -0.009471437 -0.0055261394 0.00015658971 -0.0019000538
0003c0 70 14 96 3c b8 9c ec bb 94 0c bc 3b 05 1c 56 3b
       0.018320292 -0.007220831 0.005738804 0.003267051
0003d0 70 3b 0e 3d 1e 7a 26 3b 4b 90 00 3c 2d 8c 95 3c
       0.034724653 0.0025402377 0.007846902 0.018255318
0003e0 01 be c8 ba 86 ff 0b bd 7e f1 1e 3d 4f 95 1d bc
       -0.0015315415 -0.034179233 0.038804524 -0.0096181175
0003f0 5a 0d 25 bd 8e d0 79 3b 61 21 8e bb aa d4 0b bd
       -0.040295936 0.0038118693 -0.004337475 -0.03413836

model.model.8.bias f4 [8]
000000 85 16 2d 3d f1 10 52 3d 91 2c 0e 3c 29 1e 3e 3d
       0.042257804 0.051285688 0.008677618 0.04641548
000010 b7 ba 42 3e 56 d8 40 3d 9a f3 80 bd e1 e7 c3 3d
       0.19016539 0.047081314 -0.06296463 0.09565712
