utils/PINNs/weights/epoch=20332-step=731988.ckpt (torch, 630683 bytes, 30 tensors)

model.model.0.weight f4 [128, 5]
-0.18236302 0.014813757 -0.22211246 0.16865031 -0.38105062 0.15762047 -0.18594834 -0.12051954
-0.13102612 -0.003128206 -0.24340263 0.118577786 -0.39748308 -0.25075203 -0.21301037 0.099323675
-0.43089876 0.5653227 0.16291448 -0.006701056 0.3162442 0.08335861 0.12229089 0.4316768
-0.2016542 0.14165546 -0.19897254 0.31960106 0.35717002 -0.41231853 0.021844208 0.34491473
-0.14539236 0.027331946 0.29494423 0.033916436 -1.4701551 0.41596162 0.361065 0.031076744
0.43146992 -0.97497016 0.30028322 0.75893235 -0.09047525 0.030171558 -0.11382206 -0.16929542
0.26401657 0.11311155 0.28504273 0.12768106 -0.37920007 -0.19870633 -0.017124606 -0.41564423
-0.2765622 0.38173515 0.026731497 -0.36227587 0.04002604 0.3920223 -0.6760176 -0.6193307
-0.061058704 -0.18558292 -0.10949587 -0.2995329 -0.42988104 -0.0036901096 0.32903078 0.40229347
-0.6802558 -0.6906192 0.1664287 -0.1767376 0.054131225 -0.8198073 -0.13600762 -0.0033758972
0.2074675 0.01633107 0.0879307 -0.042342216 -0.24589303 -0.022259003 -0.37996775 0.4264088
0.34556904 0.08622511 -0.006746741 0.34765145 0.6383138 0.39626282 -0.12569289 0.000982339
0.47213018 0.41972467 0.28043067 -0.03852104 -0.003305447 -2.4280457 0.42162633 0.31745687
0.014661085 0.17853798 -0.023541614 0.5483696 0.4705697 -0.10243479 0.7699091 -0.9586142
0.4254209 0.14889567 -0.09177268 0.19204417 -0.36684924 0.037810776 -0.04746078 0.3228099
-0.20034552 0.035619743 0.06894261 -0.5741242 0.21694663 -0.0076780217 0.31496334 -0.031566355
0.03759529 0.329485 -0.2582859 0.0631691 -0.16248329 -0.40696153 -0.16189629 -0.10734825
0.2536256 0.29475442 0.14111601 -0.079485975 0.070107 -0.56609714 0.41753173 0.6315091
0.03406623 -0.19807908 -0.2731706 0.03418457 -0.3317637 -0.3361482 -0.079679705 -0.0054966793
-0.13441394 0.10348261 0.118796125 0.17085686 -0.48138073 0.17476651 -0.31672984 0.20944877
-0.03715713 0.4341482 -0.44796386 0.32968372 0.16074742 -0.050856218 0.050257277 0.33830273
0.51003903 0.1967586 -0.029051369 -0.34319088 -0.0055651343 0.08386966 -0.30462804 0.0072057596
-0.96300936 0.18841608 0.71882117 0.0433296 -0.02731585 0.017959218 0.2788581 -0.39491802
-0.3450654 -0.14868529 -0.25737953 0.2306661 0.31599376 -0.43389818 -0.37954107 -0.43550456
0.16871333 0.35994187 -0.34674263 -0.17681272 0.20684959 -0.04490665 0.86576337 0.015303763
-0.12449694 0.029046785 0.13942713 -0.1581406 -0.34652606 -0.076965585 0.14950445 -0.32016972
-0.466846 0.23625404 0.16710262 -0.12137104 0.07250893 -0.33368105 -0.07340699 -0.4535369
0.009590125 -0.20632789 -0.02994741 -0.061313808 -0.10553016 -0.66621125 0.13790016 -0.29317772
0.18148218 0.003651147 -1.9086984 0.2906045 1.2894309 0.025930809 -0.02039462 -1.9285702
-0.15078379 0.43739247 0.0049195527 -0.34808534 0.50840527 -0.41574752 -0.9312393 0.22161742
0.18347548 -0.08880151 -0.12729162 0.4646674 0.15144536 0.056111757 -0.5970278 -0.03119158
0.54008836 0.12525183 -0.0077119865 -1.7572052 1.0799178 0.6777987 0.028140344 -0.107678644
00000000: 5fbd 3abe 66b5 723c 7371 63be abb2 2c3e
00000010: 1119 c3be 4367 213e 3e69 3ebe f3d2 f6bd
00000020: b62b 06be 9602 4dbb 8a3e 79be e9d8 f23d
00000030: e782 cbbe 9262 80be 641f 5abe 366a cb3d
00000040: c39e dcbe fdb8 103f 0ed3 263e 8894 dbbb
00000050: c3ea a13e ebb7 aa3d a573 fa3d be04 dd3e
00000060: 707e 4ebe 210e 113e 75bf 4bbe c0a2 a33e
00000070: fdde b63e 6a1b d3be a0f2 b23c aa98 b03e
00000080: bce1 14be 3fe7 df3c ee02 973e f6eb 0a3d
00000090: 0b2e bcbf ecf8 d43e 83dd b83e a894 fe3c
000000a0: a0e9 dc3e a597 79bf b9be 993e 6449 423f
000000b0: 164b b9bd 582a f73c 8a1b e9bd c75b 2dbe
000000c0: 2e2d 873e 07a7 e73d 1ff1 913e d3be 023e
000000d0: 8326 c2be ac79 4bbe e748 8cbc 52cf d4be
000000e0: 9099 8dbe ca72 c33e 03fc da3c 397c b9be
000000f0: 58f2 233d 26b7 c83e 7d0f 2dbf 758c 1ebf
00000100: b118 7abd 7309 3ebe 5f3f e0bd 605c 99be
00000110: 5e19 dcbe c4d5 71bb b976 a83e 69f9 cd3e
00000120: 3e25 2ebf 6bcc 30bf 496c 2a3e b4fa 34be
00000130: b4b8 5d3d e4de 51bf 9545 0bbe 283e 5dbb
00000140: 5c72 543e bcc8 853c 0315 b43d 086f 2dbd
00000150: 62cb 7bbe 8358 b6bc 228b c2be 4152 da3e
00000160: 6dee b03e ca96 b03d c413 ddbb 5fff b13e
00000170: 8868 233f f6e2 ca3e a3b5 00be d4c1 803a
00000180: 0cbb f13e 27e6 d63e 9c94 8f3e 3dc8 1dbd
00000190: 33a0 58bb 1a65 1bc0 68df d73e b589 a23e
000001a0: 0c35 703c a9d2 363e 58da c0bc f361 0c3f
000001b0: 83ee f03e 55c9 d1bd c318 453f bd67 75bf
000001c0: c5d0 d93e 1b78 183e 51f3 bbbd 3aa7 443e
000001d0: aad3 bbbe 79df 1a3d 3c66 42bd 5747 a53e
000001e0: 6027 4dbe 02e6 113d c831 8d3d cef9 12bf
000001f0: 4227 5e3e ea97 fbbb e042 a13e b94b 01bd
00000200: 85fd 193d 42b2 a83e 0d3e 84be cd5e 813d
00000210: 0562 26be 435d d0be 24c8 25be 66d9 dbbd
00000220: 37db 813e 0dea 963e b780 103e 8bc9 a2bd
00000230: 4294 8f3d beeb 10bf b8c6 d53e 95aa 213f
00000240: 0889 0b3d 3ed5 4abe 04dd 8bbe 1f05 0c3d
00000250: efdc a9be 9e1b acbe 1d2f a3bd 7d1d b4bb
00000260: cfa3 09be b1ee d33d 624b f33d 1af5 2e3e
00000270: 8977 f6be fef5 323e 6a2a a2be bd79 563e
00000280: 1332 18bd ac48 de3e 855b e5be 4ecc a83e
00000290: f99a 243e 9c4e 50bd 93da 4d3d 0436 ad3e
000002a0: eb91 023f 167b 493e 23fd edbc b7b6 afbe
000002b0: bb5b b6bb dbc3 ab3d 35f8 9bbe 4b1e ec3b
000002c0: c887 76bf 25f0 403e aa04 383f 617a 313d
000002d0: 7dc5 dfbc 361f 933c 7dc6 8e3e b232 cabe
000002e0: 69ac b0be f540 18be 40c7 83be bc33 6c3e
000002f0: efc9 a13e e727 debe 3553 c2be 74fa debe
00000300: 30c3 2c3e 4d4a b83e 4088 b1be 650e 35be
00000310: 61d0 533e 09f0 37bd aba2 5d3f a2bc 7a3c
00000320: 40f8 febd 86f3 ed3c fcc5 0e3e 9cef 21be
00000330: dd6b b1be 22a0 9dbd b217 193e 49ed a3be
00000340: 7006 efbe 94ec 713e f31c 2b3e 6191 f8bd
00000350: 907f 943d 3ed8 aabe 6756 96bd fd35 e8be
00000360: e61f 1d3c 9e47 53be 4554 f5bc 3024 7bbd
00000370: 3220 d8bd d28c 2abf b335 0d3e 641b 96be
00000380: 77d6 393e 1548 6f3b 3b50 f4bf 1dca 943e
00000390: 120c a53f d96c d43c 9e12 a7bc 63db f6bf
000003a0: 1167 1abe e8f1 df3e 3334 a13b 3e38 b2be
000003b0: d926 023f dcdc d4be b365 6ebf adef 623e
000003c0: ffe0 3b3e 91dd b5bd bc58 02be e3e8 ed3e
000003d0: 7e14 1b3e 71d5 653d d0d6 18bf 7c85 ffbc
000003e0: 3b43 0a3f 0442 003e d5b4 fcbb 1aec e0bf
000003f0: bf3a 8a3f 3784 2d3f 9486 e63c 9f86 dcbd

model.model.0.bias f4 [128]
0.36156908 0.33700332 -0.3864057 0.31651717 -0.06397031 0.18472773 -0.08231517 0.15857978
0.14953977 0.1446752 -0.7197934 -0.101368316 -0.32483536 -0.35889575 -0.3945324 -0.13987395
0.27946004 -0.11874278 0.54009265 -0.27067423 0.18704194 0.06100952 0.16138494 0.08609223
-0.32549337 -0.3325339 0.15016998 0.07580058 0.6274429 0.26399192 -0.16996935 -0.042046085
0.12826984 -0.10349086 -0.24323612 0.5604432 0.03447219 0.42913827 -0.43981543 0.29719362
-0.40866384 -0.4962241 -0.17938915 0.3921627 -0.20475136 0.30969074 0.14132464 -0.4215269
-0.22296411 0.1636644 0.8408148 -0.37290794 -0.31999436 -0.41162056 0.040495344 -0.02726467
0.59768593 0.07580083 0.3781365 0.30365482 0.6061439 -0.24407555 -1.2093492 -0.01276859
-0.41281927 0.38660178 0.41088846 -0.2248158 -0.39891392 0.21189712 -0.39414632 0.51197016
-0.50993466 0.07472777 0.08912201 0.46928635 -0.1335901 0.09644646 -0.51362646 0.03637143
0.026839348 0.28178358 0.4310641 -0.04137029 -0.18970867 -0.22116451 -0.29570302 -0.20527904
-0.35524857 -0.45306063 0.62325513 -0.21839209 -0.1867452 -0.6214246 0.1950941 -0.22159058
-0.4426275 0.052263446 0.61485195 -0.054406773 0.0052075707 -0.4970321 0.19897442 -0.38103333
0.0605649 -0.20346028 -0.42545658 -0.43478283 -0.6561172 0.038008377 -0.17643654 0.058707785
-0.73839575 -0.33527634 -0.5937742 0.038227245 0.13943148 0.44077453 0.5582047 0.051648963
-0.26597428 0.6918588 -0.316213 -0.26625454 -0.088853374 0.16471599 -0.071091354 0.39196688
00000000: 951f b93e b38b ac3e f8d6 c5be 8a0e a23e
00000010: de02 83bd 4429 3d3e db94 a8bd bd62 223e
00000020: f420 193e bc25 143e 6144 38bf 319a cfbd
00000030: d250 a6be 2fc1 b7be 2700 cabe 1e3b 0fbe
00000040: 6315 8f3e 6a2f f3bd 8343 0a3f d095 8abe
00000050: ec87 3f3e 1ee5 793d 1842 253e 2051 b03d
00000060: 11a7 a6be e241 aabe 29c6 193e 563d 9b3d
00000070: 19a0 203f f329 873e 720c 2ebe 8438 2cbd
00000080: 2b59 033e 04f3 d3bd e412 79be 3579 0f3f
00000090: b632 0d3d 03b8 db3e 7d2f e1be c329 983e
000000a0: 633c d1be 1611 febe cab1 37be 8dc9 c83e
000000b0: 57aa 51be c98f 9e3e 68b7 103e 60d2 d7be
000000c0: b450 64be a497 273e a43f 573f caed bebe
000000d0: 4dd6 a3be eebf d2be 72de 253d 285a dfbc
000000e0: f201 193f 773d 9b3d 1b9b c13e a578 9b3e
000000f0: 3f2c 1b3f f1ee 79be f4cb 9abf 5933 51bc
00000100: 0c5d d3be abf0 c53e f95f d23e 1d36 66be
00000110: 723e ccbe 8ffb 583e 8ccd c9be 7a10 033f
00000120: 148b 02bf e00a 993d 9a85 b63d 4d46 f03e
00000130: d8cb 08be b985 c53d 067d 03bf 35fa 143d
00000140: 31de db3c f045 903e 6fb4 dc3e e573 29bd
00000150: fd42 42be f378 62be 6366 97be ab34 52be
00000160: 24e3 b5be 90f7 e7be a68d 1f3f 2da2 5fbe
00000170: 223a 3fbe af15 1fbf bfc6 473e a4e8 62be
00000180: 12a0 e2be 3212 563d f066 1d3f a3d9 5ebd
00000190: 45a4 aa3b fe7a febe f3bf 4b3e cd16 c3be
000001a0: e712 783d e457 50be 72d5 d9be db9b debe
000001b0: 4cf7 27bf acae 1b3d c8ab 34be 9377 703d
000001c0: 8107 3dbf 57a9 abbe 9601 18bf 2c94 1c3d
000001d0: 20c7 0e3e 33ad e13e 81e6 0e3f dd8d 533d
000001e0: c82d 88be a91d 313f ace6 a1be 8452 88be
000001f0: c2f8 b5bd 4fab 283e 5898 91bd e2af c83e

model.model.2.weight f4 [128, 128]
-0.0513367 -0.04369963 -0.036851853 0.040572315 -0.0031666085 -0.022919826 -0.08600346 -0.02244716
0.05670025 0.043163314 0.039766386 0.07872067 0.011356191 0.056745462 0.0339888 0.06422396
0.04301721 -0.089870624 -0.02139717 -0.112888634 -0.2841822 -0.06605085 -0.037618455 -0.09081541
0.0616219 -0.051786933 0.06596411 0.034061693 0.046810027 0.0632147 -0.008495836 -0.09648449
0.039286196 -0.08751201 0.020345032 -0.05477713 0.0540979 0.05646032 -0.0071220947 -0.043375235
0.06588805 -0.041151818 -0.07892379 -0.07353707 -0.09479258 -0.0033623034 0.018266555 -0.03704778
0.02666685 0.040001363 -0.10863112 0.00092213496 -0.027719935 -0.07488235 0.006543246 -0.04601177
0.0033705824 -0.01158324 -0.4792636 -0.090534896 -0.0902714 0.022819052 0.030621648 -0.064409785
0.036431722 -0.088053234 -0.03870927 0.06252164 0.01962104 0.022141926 -0.087640874 -0.2647537
-0.037319954 0.07897165 -0.08970406 0.03321674 -0.044162326 -0.072565146 0.056427483 -0.06965401
0.02953986 -0.03791598 0.06061902 -0.094637476 0.043777876 0.040026434 0.01816666 0.07470488
0.05068856 0.033263348 0.042132966 0.06267886 0.055600855 0.02921493 -0.06278109 0.03694971
-0.0053010415 0.0047509465 -0.025494965 0.03710643 -0.0817815 -0.06951073 -0.04027786 0.073062934
-0.059524298 -0.019706786 -0.058088668 -0.10254381 -0.098803245 -0.13630198 -0.0777285 -0.09317682
-0.049066555 0.0660557 -0.06919644 -0.048647463 -0.039626636 -0.13690037 0.042748503 -0.055108752
-0.052726015 0.021223297 -0.08509923 0.041737393 -0.036643595 0.028986396 0.054186583 -0.3142347
-0.0906314 -0.03410554 0.070901476 -0.08875302 0.06926601 -0.07173435 -0.029330961 0.065709166
-0.092012614 -0.091494 -0.022405555 -0.070016675 -0.0034947598 0.048042245 0.034664415 -0.08969307
-0.027669413 -0.0758117 -0.057629894 0.035648137 0.0088195745 0.08548323 0.02249873 -0.07347009
0.0142521 -0.06890695 -0.08795308 -0.07971733 0.07561598 -0.04746017 0.05810433 -0.06895397
0.070661984 -0.062433988 0.020756846 -0.09373489 -0.041175976 -0.029450223 -0.0113818925 -0.04833014
-0.025117187 -0.018546646 0.052137665 -0.09492963 -0.07581768 0.056117456 -0.01134201 -0.029832102
-0.013851217 0.07075623 -0.05421006 0.05464886 0.02943679 -0.06516101 -0.023110945 -0.030876832
-0.047352355 -0.058639508 0.15304004 0.0740243 0.015566292 0.03705612 0.066738985 0.03890075
0.078634225 0.024937667 -0.10191184 0.079595484 0.003618812 -0.05090202 0.011836853 -0.005168215
-0.04889522 0.010132939 -0.032329217 -0.07589123 -0.008277809 0.07602861 -0.00973479 0.0061387247
-0.006009188 -0.06426308 0.007076047 -0.07378383 0.03402233 0.07435163 0.080879785 -0.024441497
-0.089683175 0.0049076625 0.06107276 0.0058214245 -0.09548333 0.07532959 -0.087077044 0.008235762
0.07937681 -0.04838395 -0.009990842 0.007820942 -0.027670769 0.034618154 0.0143539235 -0.009325845
-0.007172476 -0.043924592 -0.025170248 -0.07293 0.07469468 -0.0035118477 0.025330866 0.02224721
0.045250714 -0.035564896 -0.07411719 -0.0068274075 -0.078668 0.022266867 -0.05170949 -0.098129034
0.026765775 0.08591656 -0.0024453064 0.06082708 0.053968392 0.0632049 0.0014406586 0.13795887
00000000: 6e46 52bd 62fe 32bd f8f1 16bd 282f 263d
00000010: e086 4fbb 5cc2 bbbc 9522 b0bd 1be3 b7bc
00000020: 853e 683d 04cc 303d 14e2 223d 4d38 a13d
00000030: 510f 3a3c ee6d 683d d737 0b3d da87 833d
00000040: d032 303d 170e b8bd 1e49 afbc 2832 e7bd
00000050: 5480 91be ab45 87bd cf15 1abd 6efd b9bd
00000060: 3f67 7c3d 891e 54bd 3118 873d 4684 0b3d
00000070: dfbb 3f3d b576 813d 1e32 0bbc a999 c5bd
00000080: 90ea 203d 7f39 b3bd a0aa a63c fc5d 60bd
00000090: c295 5d3d f042 673d 7660 e9bb 3baa 31bd
000000a0: 50f0 863d cf8e 28bd cca2 a1bd 9a9a 96bd
000000b0: 9d22 c2bd 175a 5cbb bea3 953c 6abf 17bd
000000c0: 7074 da3c 78d8 233d fe79 debd 6ebb 713a
000000d0: eb14 e3bc eb5b 99bd ba68 d63b d676 3cbd
000000e0: fde4 5c3b a1c7 3dbc 0a62 f5be 5c6a b9bd
000000f0: 36e0 b8bd 05ef ba3c 40da fa3c 47e9 83bd
00000100: 6e39 153d 4155 b4bd 9d8d 1ebd 580b 803d
00000110: 4ebc a03c fc62 b53c 0f7d b3bd cc8d 87be
00000120: cfdc 18bd e3bb a13d c3b6 b7bd 470e 083d
00000130: 8ee3 34bd 099d 94bd 8120 673d c3a6 8ebd
00000140: 94fd f13c c94d 1bbd a64b 783d 4bd1 c1bd
00000150: 6e50 333d c2f2 233d 3fd2 943c dffe 983d
00000160: cf9e 4f3d 263f 083d 9e93 2c3d c65d 803d
00000170: b9bd 633d 2654 ef3c 5f93 80bd 9458 173d
00000180: 5cb4 adbb d4ad 9b3b d1da d0bc e9fc 173d
00000190: 0f7d a7bd a45b 8ebd 66fa 24bd 05a2 953d
000001a0: c0cf 73bd 2070 a1bc 62ee 6dbd 7d02 d2bd
000001b0: 5b59 cabd bf92 0bbe 1f30 9fbd 7dd3 bebd
000001c0: 03fa 48bd 3648 873d ddb6 8dbd 9042 47bd
000001d0: 8a4f 22bd 9c2f 0cbe 0e19 2f3d b7b9 61bd
000001e0: 3cf7 57bd 7bdc ad3c 8148 aebd d4f4 2a3d
000001f0: 9817 16bd e174 ed3c c0f2 5d3d 5fe3 a0be
00000200: f59c b9bd 40b2 0bbd cb34 913d 25c4 b5bd
00000210: 56db 8d3d 75e9 92bd 7c47 f0bc 8792 863d
00000220: 1c71 bcbd 3561 bbbd db8b b7bc e764 8fbd
00000230: 5708 65bb f2c7 443d 46fc 0d3d 00b1 b7bd
00000240: f7aa e2bc 2a43 9bbd 530d 6cbd c803 123d
00000250: fa7f 103c d511 af3d 424f b83c 7d77 96bd
00000260: a481 693c 161f 8dbd bf20 b4bd d742 a3bd
00000270: 8ddc 9a3d 9865 42bd cefe 6d3d bd37 8dbd
00000280: 3bb7 903d c8ba 7fbd 430a aa3c 14f8 bfbd
00000290: 24a8 28bd 9841 f1bc 1e7b 3abc d3f5 45bd
000002a0: 8fc2 cdbc 23ef 97bc 4e8e 553d 776a c2bd
000002b0: 4d46 9bbd 6bdb 653d d7d3 39bc 7462 f4bc
000002c0: 37f0 62bc a4e8 903d 5e0b 5ebd 7cd7 5f3d
000002d0: 6c25 f13c 2373 85bd 2a53 bdbc 69f1 fcbc
000002e0: 8bf4 41bd fb2f 70bd 87b6 1c3e 0d9a 973d
000002f0: c309 7f3c 28c8 173d 73ae 883d 6556 1f3d
00000300: fb0a a13d 144a cc3c 28b7 d0bd f502 a33d
00000310: 9729 6d3b a37e 50bd 5cef 413c 215a a9bb
00000320: 5b46 48bd a004 263c a46b 04bd dc6c 9bbd
00000330: a69f 07bc e3b4 9b3d ab7e 1fbc 5b27 c93b
00000340: b9e8 c4bb 5d9c 83bd 2fde e73b fa1b 97bd
00000350: 005b 0b3d ab45 983d 4da4 a53d 8939 c8bc
00000360: d0ab b7bd 75d0 a03b 6e27 7a3d a6c1 be3b
00000370: c48c c3bd 6646 9a3d 7355 b2bd 4aef 063c
00000380: 4f90 a23d 402e 46bd a1b0 23bc 6923 003c
00000390: cfad e2bc c4cb 0d3d b82c 6b3c 6ecb 18bc
000003a0: 1707 ebbb 46ea 33bd d631 cebc 535c 95bd
000003b0: 86f9 983d 0727 66bb ad82 cf3c c83f b63c
000003c0: d058 393d 7fac 11bd c1ca 97bd 72b8 dfbb
000003d0: b01c a1bd 0169 b63c 55cd 53bd e0f7 c8bd
000003e0: e643 db3c 05f5 af3d 6f41 20bb d125 793d
000003f0: f60d 5d3d 9271 813d 7bd4 bc3a 1745 0d3e

model.model.2.bias f4 [128]
0.050242268 -0.071754366 -0.0005340248 -0.19687183 0.108147435 0.019199356 0.070646055 -0.10222935
0.03389247 0.010331828 -0.015248397 -0.055354312 0.01939421 0.06903123 0.037755985 0.07935159
-0.068402015 0.11956597 -0.061093383 0.03497658 -0.07915936 -0.119744815 -0.14833844 0.19266161
0.20649877 0.13377222 -0.05396968 0.20926203 0.32920462 -0.046289083 -0.12473946 -0.01476839
0.13439858 0.01940876 0.12741221 0.097240515 -0.030681023 -0.0070651486 0.5578153 0.015249146
-0.05772661 0.066446885 0.13756141 0.29724726 0.03646289 -0.02864047 -0.111985825 -0.066124484
-0.08595579 0.066649094 -0.03944553 -0.055093154 0.38626373 0.047594067 0.12956095 -0.12255757
-0.011536751 -0.0106873615 0.13813385 0.15149747 0.150777 0.08534826 -0.13137355 0.299572
0.22457254 0.06212909 0.21766837 0.09397843 0.33358204 0.029024929 -0.044180725 -0.00085182267
-0.16644946 0.044004183 -0.026503317 0.08673323 -0.018035032 -0.0106849875 0.11633275 0.09729188
0.1474922 0.016659534 -0.022157038 0.42287713 -0.16804333 0.13364804 -0.0016231487 0.15424106
0.09848285 0.037637122 -0.027882755 -0.041599866 -0.08877441 0.031032337 -0.053622074 -0.021104451
0.06569784 -0.039391167 0.06749974 0.026897855 -0.042917367 0.026814485 0.16955143 -0.063242316
0.30370337 0.11004027 -0.014843297 0.14421216 0.15765011 0.024284473 0.027023803 0.09109454
-0.11559326 -0.08919007 -0.033190288 0.037837625 0.11015101 0.0012754579 0.056074627 -0.0375135
-0.00045411827 -0.03123132 0.038233493 0.07157487 0.09406461 -0.049751088 0.10686271 -0.08405203
00000000: d6ca 4d3d f4f3 92bd ccfd 0bba c598 49be
00000010: 677c dd3d f847 9d3c e1ae 903d 9f5d d1bd
00000020: d5d2 0a3d d446 293c 6ad4 79bc 34bb 62bd
00000030: 9be0 9e3c 3f60 8d3d 05a6 1a3d 1683 a23d
00000040: 5b16 8cbd 01df f43d 0e3d 7abd 9a43 0f3d
00000050: 4d1e a2bd c53c f5bd 08e6 17be 1649 453e
00000060: 6a74 533e 96fb 083e 500f 5dbd c948 563e
00000070: 828d a83e 9f99 3dbd 6777 ffbd 1ef7 71bc
00000080: c89f 093e 1fff 9e3c 5978 023e 0926 c73d
00000090: c556 fbbc c382 e7bb fccc 0e3f 8ed7 793c
000000a0: bd72 6cbd 4e15 883d e6dc 0c3e cb30 983e
000000b0: 1d5a 153d 6b9f eabc d358 e5bd 466c 87bd
000000c0: 9709 b0bd 527f 883d a391 21bd 5ca9 61bd
000000d0: 5cc4 c53e fff1 423d a0ab 043e 77ff fabd
000000e0: a404 3dbc 0b1a 2fbc f672 0d3e 2722 1b3e
000000f0: 4965 1a3e 12cb ae3d ca86 06be 8061 993e
00000100: 58f6 653e 137b 7e3d 75e4 5e3e c377 c03d
00000110: 44cb aa3e b0c5 ed3c d9f6 34bd da4c 5fba
00000120: ba71 2abe bb3d 343d 7c1d d9bc 31a1 b13d
00000130: 34be 93bc 1610 2fbc dd3f ee3d f740 c73d
00000140: 3208 173e 9379 883c ad82 b5bc 5a83 d83e
00000150: 8d13 2cbe 08db 083e d5bf d4ba 5ef1 1d3e
00000160: 60b1 c93d 6229 1a3d 606a e4bc 9f64 2abd
00000170: 5ccf b5bd 8737 fe3c d2a2 5bbd 3ee3 acbc
00000180: 978c 863d a258 21bd 4e3d 8a3d e458 dc3c
00000190: 1fca 2fbd 0daa db3c e49e 2d3e 3085 81bd
000001a0: 027f 9b3e cb5c e13d 4d31 73bc 5aac 133e
000001b0: 086f 213e 3bf0 c63c 0661 dd3c c68f ba3d
000001c0: 29bc ecbd 49a9 b6bd 8af2 07bd a0fb 1a3d
000001d0: da96 e13d 442d a73a 82ae 653d c1a7 19bd
000001e0: b916 eeb9 d3d8 ffbc b99a 1c3d d895 923d
000001f0: f2a4 c03d ccc7 4bbd d6da da3d 7923 acbd

model.model.4.weight f4 [128, 128]
-0.08837662 -0.019173361 0.07609377 -0.18204038 0.035292983 0.0984439 0.17883956 0.008172423
0.008279822 0.028285323 0.13081062 -0.054383963 0.0049445205 0.019714793 0.096907035 0.13497141
0.09874651 0.049652226 0.1550937 -0.08121949 0.0777492 0.045647714 -0.038812153 0.012298248
-0.093924455 0.050473146 0.07081254 0.13361028 0.0074692722 0.073212646 0.09172655 0.13612908
-0.010336924 0.06551724 0.0041820877 0.08227455 0.049182773 -0.02421237 0.07614084 0.09081222
0.02322497 0.08544599 0.023502873 -0.10328966 0.16127065 0.012696454 0.09663283 0.16003555
-0.04225851 0.12288323 0.13573807 0.11996501 0.07917821 0.041066393 0.0023594575 0.102006
-0.026352597 -0.080426246 0.026813893 -0.05609622 0.06372294 0.029820485 -0.013364691 0.012640838
-0.22840108 0.0026159748 -0.13478161 -0.024830034 -0.14843366 0.20269445 0.090676926 0.0507788
0.005420985 0.046823986 -0.02796215 0.16004968 -0.08001096 0.19327506 0.028596228 0.08239823
-0.1399233 0.054803595 -0.01773301 0.15679382 -0.17178178 0.039811112 0.17317322 0.18506634
0.09991258 0.17693129 0.19492456 0.06780082 0.09762839 0.043410636 0.18365636 -0.041057736
0.046527997 0.030973619 -0.29921284 0.103185646 0.08499812 0.061632566 0.053176984 -0.09601094
0.010945059 0.015926955 0.1973345 0.16126639 -0.020513823 0.051706143 0.063185975 -0.06969574
0.11903458 -0.069437616 0.17451462 0.19213086 0.01339694 0.118204534 0.18881303 0.108050175
0.16089454 -0.14464617 0.1097885 0.124348305 0.15185735 -0.045806527 0.083515875 0.13865536
-0.16733392 -0.057000246 0.15795533 -0.013370566 -0.06302244 0.07038699 0.00464022 0.0260221
-0.04583879 0.014877314 0.111454345 -0.1403773 -0.0350795 0.15544601 0.009617476 -0.019500637
-0.076876156 0.16381703 0.080299035 -0.05156992 0.022507362 -0.03150097 0.075710766 0.052407756
-0.20108809 0.15039156 0.07595497 -0.045558393 0.010104913 0.0759905 0.007212398 0.16958515
0.051717095 0.041936446 0.010265265 -0.11768973 0.04424125 0.10783082 0.023341078 0.12758453
0.1498967 0.055396676 -0.046828344 0.09554849 0.065387845 -0.07237663 0.0912049 0.058037296
-0.09803546 0.15678461 0.16456462 0.09174542 -0.0039939964 -0.05036547 0.015545444 0.053395182
-0.01815397 0.034671575 0.03863307 -0.008046131 -0.113379754 -0.0001868524 -0.0184805 0.15138823
0.07899505 -0.13086545 -0.14387175 0.1290118 -0.08627359 0.072671786 0.06559828 -0.13318472
-0.066205844 0.07802567 0.0695284 0.04800507 -0.087081544 0.13268672 0.012260523 0.014663127
-0.15097666 0.037063263 -0.056898713 0.070807785 -0.044842966 -0.0023281216 0.13026766 0.15899049
0.008349308 0.12826835 0.14148279 -0.08784533 -0.0960086 0.14623998 0.06759718 -0.013341836
0.04046774 0.16128261 -0.17387623 0.006053357 0.02188584 0.15590192 0.09212998 -0.21157004
0.07773065 -0.025894212 0.12233785 0.07047619 -0.13670197 0.0068198186 0.059952915 0.020647189
0.1535602 0.071115725 0.09812084 0.008495783 0.14929812 0.06493167 0.16161884 0.1638182
0.061682254 -0.083094835 0.09051536 -0.0036568805 -0.00011648888 0.08728916 0.12309928 0.13127287
00000000: cdfe b4bd 7411 9dbc 0dd7 9b3d cb68 3abe
00000010: 608f 103d f59c c93d b821 373e a0e5 053c
00000020: 17a8 073c 9fb6 e73c 38f3 053e b8c1 5ebd
00000030: a505 a23b eb80 a13c 3277 c63d f235 0a3e
00000040: 9c3b ca3d 2260 4b3d e2d0 1e3e 6756 a6bd
00000050: f93a 9f3d 19f9 3a3d 7ef9 1ebd 977e 493c
00000060: 775b c0bd eebc 4e3d 2a06 913d 22d1 083e
00000070: ccc0 f43b 83f0 953d 21db bb3d 6c65 0b3e
00000080: 345c 29bc e72d 863d e509 893b 8f7f a83d
00000090: e073 493d 0559 c6bc bbef 9b3d c2fb b93d
000000a0: 4b42 be3c 4ffe ae3d 1989 c03c 8789 d3bd
000000b0: 2224 253e ca04 503c 6fe7 c53d 5ce0 233e
000000c0: 4217 2dbd 34aa fb3d ecfe 0a3e 37b0 f53d
000000d0: 2f28 a23d 3c35 283d 21a1 1a3b 86e8 d03d
000000e0: 67e1 d7bc 84b6 a4bd cfa8 db3c 26c5 65bd
000000f0: 2c81 823d 174a f43c 94f7 5abc 841b 4f3c
00000100: f9e1 69be c670 2b3b 3104 0abe 5b68 cbbc
00000110: fefe 17be 228f 4f3e d3b4 b93d 6efd 4f3d
00000120: 85a2 b13b 82ca 3f3d e110 e5bc 10e4 233e
00000130: c9dc a3bd e6e9 453e a342 ea3c 67c0 a83d
00000140: 0e48 0fbe bc79 603d d144 91bc 8f8e 203e
00000150: 90e7 2fbe fa10 233d 5254 313e 0882 3d3e
00000160: f79e cc3d 7a2d 353e 4e9a 473e 28db 8a3d
00000170: 65f1 c73d 5acf 313d 6a10 3c3e 282c 28bd
00000180: 2494 3e3d 63bc fd3c 6d32 99be ff52 d33d
00000190: 7f13 ae3d 6e72 7c3d 1cd0 593d 62a1 c4bd
000001a0: e852 333c 3f79 823c 0e12 4a3e 0423 253e
000001b0: 9b0c a8bc d2c9 533d a667 813d a4bc 8ebd
000001c0: 67c8 f33d 4f35 8ebd f6b3 323e f4bd 443e
000001d0: d77e 5b3c 3815 f23d 3458 413e 6949 dd3d
000001e0: 8ac1 243e 201e 14be cbd8 e03d 53aa fe3d
000001f0: 7e80 1b3e a09f 3bbd 5f0a ab3d acfb 0d3e
00000200: 9559 2bbe 1779 69bd 0bbf 213e 3810 5bbc
00000210: e911 81bd 0e27 903d fd0c 983b 4d2c d53c
00000220: 74c1 3bbd fabf 733c 2d42 e43d 11bf 0fbe
00000230: 86af 0fbd 3d2d 1f3e 9e92 1d3c cdbf 9fbc
00000240: 3f71 9dbd a7bf 273e d273 a43d fb3a 53bd
00000250: 5c61 b83c 2907 01bd 3f0e 9b3d 84a9 563d
00000260: 09ea 4dbe 3f00 1a3e 488e 9b3d 709b 3abd
00000270: 148f 253c e8a0 9b3d fb55 ec3b bba7 2d3e
00000280: 4ed5 533d 8dc5 2b3d a42f 283c 5007 f1bd
00000290: 5036 353d 68d6 dc3d ca35 bf3c 85a5 023e
000002a0: 857e 193e a0e7 623d 14cf 3fbd edae c33d
000002b0: 10ea 853d 333a 94bd a2c9 ba3d 84b8 6d3d
000002c0: d1c6 c8bd 258c 203e a183 283e 06e5 bb3d
000002d0: 12e0 82bb 064c 4ebd 51b2 7e3c e8b4 5a3d
000002e0: a2b7 94bc c803 0e3d b63d 1e3d ebd3 03bc
000002f0: a533 e8bd cfed 43b9 6b64 97bc 8405 1b3e
00000300: 28c8 a13d 9801 06be 1e53 13be ab1b 043e
00000310: 35b0 b0bd f2d4 943d 6458 863d 9361 08be
00000320: ee96 87bd eccb 9f3d e864 8e3d f7a0 443d
00000330: cf57 b2bd 07df 073e 5ce0 483c 9d3d 703c
00000340: a099 1abe a6cf 173d a00e 69bd ac03 913d
00000350: 42ad 37bd 6693 18bb e364 053e 67ce 223e
00000360: 89cb 083c c758 033e dde0 103e 41e8 b3bd
00000370: 28a0 c4bd efbf 153e 6470 8a3d b797 5abc
00000380: 80c1 253d 4527 253e 9c0c 32be 3d5b c63b
00000390: ef49 b33c c1a4 1f3e a5ae bc3d d1a5 58be
000003a0: 3f31 9f3d 1920 d4bc 448c fa3d d255 903d
000003b0: 9afb 0bbe c978 df3b 3091 753d 4b24 a93c
000003c0: e33e 1d3e 1fa5 913d 94f3 c83d e631 0b3c
000003d0: 9be1 183e e5fa 843d 697f 253e f5bf 273e
000003e0: 88a6 7c3d a02d aabd 1e60 b93d 46a8 6fbb
000003f0: 7e4b f4b8 a9c4 b23d 7a1b fc3d 656c 063e

model.model.4.bias f4 [128]
-0.122686125 -0.1276323 -0.18464889 0.17959431 0.08032105 0.0047997124 -0.103471875 0.028608887
-0.051002823 -0.10846807 -0.011022025 -0.18956815 0.10083998 0.056746792 -0.005110956 0.09545739
0.036568403 0.04387748 -0.10083545 -0.13430692 -0.10080191 -0.049755722 0.07538323 0.1824124
-0.053256277 -0.15707879 -0.14443561 0.029379431 -0.109866835 -0.1042508 0.004261231 -0.08979694
0.06692335 -0.05062 0.031255294 -0.092201725 0.07736935 0.014522413 -0.030716635 -0.20639907
0.076613076 -0.12365098 0.16360347 0.17932658 -0.16273206 0.12235507 -0.060855184 -0.0723933
0.12602548 0.21288596 0.054153018 0.07574878 -0.046195816 -0.016256627 0.009700803 0.18824092
-0.062197555 0.06863157 0.04212682 -0.12384095 -0.15135029 -0.062506795 0.017867351 -0.056686494
-0.041391127 -0.055396214 0.24649626 0.0040296037 0.07590475 0.010689578 -0.090971686 0.034327794
0.029968377 -0.10124768 0.044301506 -0.09515586 0.024695896 -0.05914295 -0.027151953 0.083597705
-0.25653687 0.21388176 -0.088523336 0.04219873 0.12005949 0.1633894 0.14791 -0.051292323
0.049281504 0.030502459 0.0016669665 0.24269846 -0.053949345 0.027719732 -0.20028761 -0.17670408
-0.18002231 -0.17104495 -0.109466515 -0.1666748 0.20025575 0.0016642435 -0.040398348 -0.021132104
0.21312717 -0.07191328 -0.08904026 0.055991076 -0.11867786 -0.07507032 0.12983678 -0.13280706
-0.10296516 -0.041455895 0.06931803 -0.21876399 0.11726036 -0.1496217 0.2472834 -0.002915849
0.110233694 0.20510249 -0.07467137 -0.106585324 0.033550367 -0.0862256 -0.022732591 -0.1611896
00000000: dd42 fbbd 0bb2 02be 9914 3dbe 92e7 373e
00000010: 5d7f a43d e846 9d3b 10e9 d3bd 2f5d ea3c
00000020: 56e8 50bd 8224 debd b995 34bc 271e 42be
00000030: 3185 ce3d 536f 683d ce79 a7bb 2a7f c33d
00000040: c0c8 153d dfb8 333d d182 cebd c187 09be
00000050: 3b71 cebd a8cc 4bbd 8662 9a3d 51ca 3a3e
00000060: 4123 5abd 43d9 20be eee6 13be 22ad f03c
00000070: dd01 e1bd 7281 d5bd cca1 8b3b 75e7 b7bd
00000080: 1c0f 893d eb56 4fbd 8d05 003d 42d4 bcbd
00000090: d273 9e3d 6aef 6d3c 74a1 fbbc 475a 53be
000000a0: 51e7 9c3d ba3c fdbd ab87 273e 63a1 373e
000000b0: 3ca3 26be 4c95 fa3d 4943 79bd f042 94bd
000000c0: d30c 013e c7fe 593e 8ecf 5d3d 2d22 9b3d
000000d0: d337 3dbd 9e2c 85bc 1ef0 1e3c 3ac2 403e
000000e0: ddc2 7ebd b58e 8c3d 2c8d 2c3d 53a0 fdbd
000000f0: 92fb 1abe 9003 80bd 8d5e 923c 1930 68bd
00000100: be89 29bd 24e7 62bd 8469 7c3e c40a 843b
00000110: f373 9b3d 5723 2f3c 5d4f babd 4d9b 0c3d
00000120: 3e80 f53c f25a cfbd 7f75 353d 13e1 c2bd
00000130: 0c4f ca3c e13f 72bd c66d debc 4635 ab3d
00000140: cd58 83be d203 5b3e b94b b5bd 93d8 2c3d
00000150: c0e1 f53d 8d4f 273e b875 173e e617 52bd
00000160: 67db 493d 4be0 f93c 1d7e da3a f285 783e
00000170: fdf9 5cbd 7e14 e33c 3218 4dbe eaf1 34be
00000180: c557 38be 6826 2fbe fb2f e0bd ccac 2abe
00000190: d80f 4d3e bf22 da3a bd78 25bd 3c1d adbc
000001a0: 023e 5a3e 4547 93bd bd5a b6bd e656 653d
000001b0: 610d f3bd 78be 99bd eff3 043e 93fe 07be
000001c0: 66df d2bd a8cd 29bd 9cf6 8d3d ab03 60be
000001d0: 3326 f03d 6e36 19be dc37 7d3e d417 3fbb
000001e0: 34c2 e13d 6306 523e 4eed 98bd 6849 dabd
000001f0: 1c6c 093d 0c97 b0bd b339 babc e30e 25be

model.model.6.weight f4 [128, 128]
-0.047364276 -0.12322792 -0.16879548 0.004735999 -0.039020848 -0.052635822 -0.09198702 -0.016625013
-0.050104152 -0.068411 -0.0045225 -0.033945326 -0.06341008 -0.02320123 -0.018712873 0.05056137
-0.00042514238 -0.031767476 -0.05868835 -0.05969142 -0.094289266 0.016535267 0.01853287 -0.0030337463
-0.17222692 -0.05198411 -0.06274944 0.09321723 0.050570387 0.09703918 0.07266832 -0.045071617
0.016034938 -0.014687283 -0.025402825 0.00010021272 0.020675058 -0.06114251 0.031046115 -0.004755179
-0.018328993 -0.04462372 -0.06931429 -0.09794181 -0.0074383616 0.10672188 0.045377742 -0.055893008
-0.050803434 -0.03655092 -0.032042425 -0.056980737 -0.15161712 0.06099442 -0.004753364 -0.014310846
0.053031575 -0.033790573 -0.063874006 -0.063021354 -0.009654639 0.08025587 0.08560368 -0.004456068
-0.08808269 -0.0273651 0.07170299 0.064340204 0.059341762 -0.116311505 0.033080064 0.089789495
-0.051772695 -0.0031740975 0.072180636 0.08225733 0.007583213 0.02942705 -0.118479036 0.06379822
-0.06725838 0.02566634 -0.038946483 0.010658227 -0.07778161 -0.007335418 0.016651357 -0.01902508
-0.03317569 -0.03441885 -0.056092672 -0.0051262625 -0.1042303 0.060789037 -0.12625504 0.018552722
-0.014678943 -0.04734804 -0.14568582 -0.1672261 0.00256599 0.084323324 -0.16127732 -0.0810747
-0.013019725 -0.029332383 -0.076173946 0.014444528 0.06379523 0.10343698 -0.114369415 -0.0831149
-0.13451703 -0.07797087 0.010493504 -0.07763008 0.049983233 0.09184349 -0.08547144 -0.093760476
0.05553201 0.07275787 -0.07955831 -0.09678212 -0.050124932 -0.10331054 -0.09419213 -0.005378641
0.16884929 0.102964245 0.058118936 -0.004498655 0.062570594 0.04524921 0.1810648 -0.00014395682
0.05411032 0.16743705 0.2942463 0.08550645 -0.05967184 0.014067183 0.051288188 0.07020543
0.17403834 0.06729789 0.041658543 0.04473147 0.057218377 0.11718983 0.12707391 0.010568944
0.1582219 0.14563785 0.10422615 0.14616697 0.056825094 0.09357423 -0.0137012135 0.021507535
0.10791734 0.01284508 -0.10338987 -0.030779798 -0.036154013 -0.042093918 0.10956258 -0.003961069
0.10000059 0.15629897 -0.030744914 0.085540794 0.09569166 0.043421358 0.078319095 0.088537164
0.0064275716 -0.25229678 0.16331023 0.113107815 0.04555424 -0.10726351 0.106700085 0.06908549
-0.15239076 -0.13395762 0.17174415 0.017240634 0.11750587 0.03922909 0.041684482 0.10890915
0.0009441576 0.024413072 -0.08149778 0.05620559 0.04461766 0.13581514 0.014074512 -0.039109457
-0.037368786 0.027841834 0.12239487 0.035614163 0.06770947 0.07903945 0.16747111 0.067721255
0.05310829 -0.25632045 0.12561141 -0.0397736 0.16222914 0.1357599 -0.12362898 0.08622597
0.014465773 -0.01797775 0.09911202 0.095899105 0.1528393 0.02094721 0.104840465 0.085625045
0.14050218 0.021678748 0.16560668 0.07487317 0.0050523826 0.108154975 0.05479656 0.053654168
0.046495117 -0.008117258 0.08253869 -0.010520389 0.07082888 0.04294794 0.037151728 0.105650395
0.094332494 0.14205313 -0.05353909 0.101983316 0.020166293 0.14339729 -0.007253686 0.012843686
-0.017737629 0.07573891 0.08534815 0.14767015 0.08070194 0.022872096 0.11341915 0.110295855
00000000: 0b01 42bd eb5e fcbd b9d8 2cbe 7030 9b3b
00000010: 53d4 1fbd a998 57bd b163 bcbd 2e31 88bc
00000020: 033a 4dbd 111b 8cbd 7b31 94bb 410a 0bbd
00000030: 25dd 81bd 8210 bebc bd4b 99bc 7019 4f3d
00000040: a5e5 deb9 9d1e 02bd 3263 70bd fe7e 74bd
00000050: bb1a c1bd f874 873c 3fd2 973c d1d1 46bb
00000060: 415c 30be 4aed 54bd c782 80bd ade8 be3d
00000070: e522 4f3d 7abc c63d 21d3 943d 049d 38bd
00000080: b45b 833c eea2 70bc 9619 d0bc 4b29 d238
00000090: bd5e a93c 9270 7abd 6c54 fe3c 55d1 9bbb
000000a0: af26 96bc 5dc7 36bd a7f4 8dbd b795 c8bd
000000b0: 80bd f3bb 0091 da3d 03de 393d 11f0 64bd
000000c0: 4317 50bd 6bb6 15bd eb3e 03bd a264 69bd
000000d0: 8541 1bbe 49d5 793d 1bc2 9bbb 0a78 6abc
000000e0: a337 593d fc67 0abd 60d0 82bd 5711 81bd
000000f0: 7e2e 1ebc 315d a43d fb50 af3d 3504 92bb
00000100: b364 b4bd c62c e0bc 04d9 923d ccc4 833d
00000110: 5910 733d ba34 eebd f67e 073d 8ee3 b73d
00000120: 9b0f 54bd 8504 50bb 71d3 933d 8876 a83d
00000130: 9a7c f83b ff10 f13c 23a5 f2bd a4a8 823d
00000140: c3be 89bd 3742 d23c 5986 1fbd d89f 2e3c
00000150: f74b 9fbd f25d f0bb 6d68 883c 7cda 9bbc
00000160: 3be3 07bd c8fa 0cbd 6ec1 65bd 35fa a7bb
00000170: b276 d5bd edfd 783d 0049 01be e1fb 973c
00000180: f37f 70bc 05f0 41bd aa2e 15be 523d 2bbe
00000190: 2b2a 283b b5b1 ac3d e225 25be 7e0a a6bd
000001a0: af50 55bc 774a f0bc 1601 9cbd bea8 6c3c
000001b0: 13a7 823d c4d6 d33d 833a eabd 2538 aabd
000001c0: d5be 09be 31af 9fbd f2ec 2b3c 85fc 9ebd
000001d0: 38bb 4c3d 7118 bc3d a60b afbd 7e05 c0bd
000001e0: 8875 633d 1402 953d 78ef a2bd b435 c6bd
000001f0: cd4f 4dbd 7a94 d3bd cee7 c0bd 503f b0bb
00000200: d4e6 2c3e ebde d23d 1f0e 6e3d 7469 93bb
00000210: 0325 803d 3c57 393d 0d69 393e 1df3 16b9
00000220: c8a2 5d3d 9e74 2b3e 73a7 963e 011e af3d
00000230: 766a 74bd 0b7a 663c 9013 523d ddc7 8f3d
00000240: 1b37 323e 7ad3 893d 26a2 2a3d 5938 373d
00000250: d15d 6a3d 3901 f03d aa1f 023e 5d29 2d3c
00000260: ec04 223e 1722 153e 8574 d53d cbac 153e
00000270: 6ec1 683d d9a3 bf3d 0e7b 60bc 9230 b03c
00000280: c403 dd3d 2c74 523c 11be d3bd ea25 fcbc
00000290: 3b16 14bd ac6a 2cbd 5962 e03d dbcb 81bb
000002a0: 1ccd cc3d d60c 203e c2dc fbbc 0330 af3d
000002b0: fdf9 c33d 98da 313d c365 a03d f952 b53d
000002c0: 619e d23b 0b2d 81be cc3a 273e 12a5 e73d
000002d0: 1597 3a3d f9ac dbbd 9385 da3d b27c 8d3d
000002e0: 530c 1cbe 302c 09be b3dd 2f3e 3b3c 8d3c
000002f0: eba6 f03d afae 203d 59bd 2a3d c30b df3d
00000300: 5881 773a ecfd c73c 4fe8 a6bd d537 663d
00000310: 02c1 363d 2013 0b3e c898 663c 3d31 20bd
00000320: 0310 19bd 8f14 e43c 29aa fa3d 28e0 113d
00000330: 43ab 8a3d 6fdf a13d 8c7d 2b3e 71b1 8a3d
00000340: 1488 593d 6f3c 83be 47a0 003e a4e9 22bd
00000350: 651f 263e a504 0b3e 3131 fdbd 3e97 b03d
00000360: d901 6d3c 1346 93bc 3efb ca3d c066 c43d
00000370: e881 1c3e 7c99 ab3c 99b6 d63d 2f5c af3d
00000380: cedf 0f3e a197 b13c cc94 293e 1b57 993d
00000390: 758e a53b 5b80 dd3d 5c72 603d 79c4 5b3d
000003a0: aa71 3e3d 3ffe 04bc 0b0a a93d b65d 2cbc
000003b0: bb0e 913d 2eea 2f3d 692c 183d 3c5f d83d
000003c0: 6531 c13d 6076 113e ce4b 5bbd a1dc d03d
000003d0: c833 a53c bdd6 123e 54b0 edbb 536e 523c
000003e0: 814e 91bc 001d 9b3d 03cb ae3d d836 173e
000003f0: 0f47 a53d 435e bb3c 4d48 e83d cbe2 e13d

model.model.6.bias f4 [128]
0.12060601 -0.14453904 0.050270256 0.08317828 -0.012305218 -0.17698075 -0.113952674 -0.16496955
-0.018848611 0.10747531 0.04694478 -0.018486379 0.009656048 0.008834557 -0.018874845 -0.0785028
0.008047688 0.09105399 -0.0075679002 0.04716874 -0.17027614 0.025401112 -0.024375752 -0.053418096
0.094210625 -0.04368706 0.06664085 -0.15601812 -0.12743333 0.036711704 -0.021781126 -0.046354122
-0.016161323 -0.15756221 -0.0384118 -0.14627197 -0.1103661 0.053542178 -0.104418114 -0.10500803
0.039791685 0.020425025 -0.06139789 0.13114831 -0.121826895 0.01202059 -0.036255494 -0.111559585
-0.0123330755 -0.05763516 -0.06062326 -0.040775448 -0.048994716 -0.031443145 -0.05531153 0.17806761
0.12105994 -0.033564143 0.09812365 0.16719376 -0.16679189 0.09417385 0.07355195 -0.04898473
-0.018650375 -0.07443835 -0.14219058 0.06651543 -0.05877005 -0.116604805 0.17619346 -0.038571473
0.050952677 0.13446702 -0.055294342 -0.08261397 -0.07070038 -0.16096406 0.0059249257 0.10182098
0.023990305 0.08230164 -0.03622397 0.03131015 0.034071803 -0.04363298 0.14820984 0.023351807
-0.13289542 -0.15896828 -0.08407716 -0.101685144 -0.15842615 0.004427216 0.027677648 0.000134483
-0.08796791 0.13638794 0.13910998 0.084433965 0.012621742 -0.0049058814 0.0028793414 0.060399342
0.19575197 0.09775633 0.045733772 0.09066201 -0.15388826 0.010628499 -0.14275791 0.0784154
0.19295348 -0.04287635 -0.08080264 -0.112338826 -0.0019251744 -0.08194446 0.11672899 0.067579485
0.037054066 -0.15072033 0.048464958 0.15372993 -0.04985477 -0.10392878 -0.01550658 -0.022922542
00000000: 4900 f73d 0b02 14be 2fe8 4d3d 6059 aa3d
00000010: d39b 49bc 713a 35be 0560 e9bd c7ed 28be
00000020: 6768 9abc 041c dc3d 2b49 403d bf70 97bc
00000030: 6734 1e3c d1be 103c 6b9f 9abc 13c6 a0bd
00000040: 73da 033c 847a ba3d 26fc f7bb 0234 413d
00000050: de5c 2ebe fe15 d03c a8af c7bc efcc 5abd
00000060: 80f1 c03d 34f1 32bd ff7a 883d 37c3 1fbe
00000070: e27d 02be 035f 163d 556e b2bc d2dd 3dbd
00000080: c064 84bc fd57 21be b155 1dbd 52c8 15be
00000090: 9f07 e2bd 0b4f 5b3d 2ad9 d5bd 730e d7bd
000000a0: 9bfc 223d 6252 a73c 5b7c 7bbd be4b 063e
000000b0: 6180 f9bd 02f2 443c a480 14bd 5a79 e4bd
000000c0: ab10 4abc d812 6cbd 1850 78bd 2804 27bd
000000d0: afae 48bd 87ca 00bd 588e 62bd 5b57 363e
000000e0: 46ee f73d 8e7a 09bd 0df5 c83d d734 2b3e
000000f0: 7ecb 2abe 38de c03d 68a2 963d 36a4 48bd
00000100: acc8 98bc 2273 98bd 689a 11be 3e39 883d
00000110: ddb8 70bd 80ce eebd 0f6c 343e 1ffd 1dbd
00000120: c1b3 503d b9b1 093e 527c 62bd 8331 a9bd
00000130: 5ccb 90bd c3d3 24be e125 c23b 8587 d03d
00000140: 5187 c43c c38d a83d 965f 14bd 123f 003d
00000150: e08e 0b3d 7fb8 32bd 52c4 173e 4a4c bf3c
00000160: bd15 08be 95c8 22be a530 acbd 4d40 d0bd
00000170: 773a 22be 2e12 913b 3cbc e23c 0104 0d39
00000180: 8528 b4bd 48a9 0b3e d972 0e3e b7eb ac3d
00000190: 6ccb 4e3c 84c1 a0bb 55b3 3c3b 4d65 773d
000001a0: 3473 483e 7934 c83d 5653 3b3d 01ad b93d
000001b0: e294 1dbe 2823 2e3c 212f 12be 4198 a03d
000001c0: 9995 453e 1d9f 2fbd db7b a5bd e611 e6bd
000001d0: 2256 fcba 7fd2 a7bd 9c0f ef3d 1d67 8a3d
000001e0: 01c6 173d 6e56 1abe 3183 463d 616b 1d3e
000001f0: 8434 4cbd 9dd8 d4bd 4f0f 7ebc 0ec8 bbbc

model.model.8.weight f4 [8, 128]
-0.0041207517 -0.09186805 -0.056822177 -0.025735684 0.0075732255 -0.04878134 -0.06589685 -0.01957594
-0.018119844 -0.056779902 0.051864948 -0.030289385 0.03212005 0.109551124 -0.019341756 0.031087587
0.053692803 -0.002205396 -0.03720264 -0.08283716 -0.011352628 0.014308363 -0.08319022 0.001979555
-0.08828032 -0.055371195 0.031036548 -0.11249924 -0.09033026 -0.038731467 -0.023561567 -0.053057343
0.06798734 -0.07032377 -0.06808979 0.032102294 -0.12688142 -0.01705338 -0.081376195 -0.10206553
-0.0072312825 -0.0017678211 -0.0012109822 0.01718921 -0.068142 0.0644167 -0.07101473 0.016011937
-0.01681587 -0.06220527 -0.025029082 -0.019843288 -0.02081236 -0.07558612 0.027269432 0.014863849
0.102823295 -0.042980954 -0.0029463153 0.09225945 -0.041528065 0.084008835 0.03702088 -0.026603023
-0.08500155 -0.022162747 0.047865365 0.040363874 -0.04013332 0.061415322 0.08017008 -0.07085726
0.0012297317 0.07215301 -0.0016043425 -0.0021145002 -0.061214104 -0.04085616 0.014904197 0.058853347
-0.0016699948 -0.1260127 -0.132485 -0.04131267 0.0004129325 0.12243239 0.032280467 0.0032674128
-0.011136336 -0.044210233 0.049618255 -0.010116732 -0.014292926 0.0008016039 -0.028392885 0.03555192
-0.10134122 -0.101379156 0.06018355 0.10750124 0.00028641752 -0.08549873 -0.04583127 -0.119214855
0.019437423 0.00044450915 -0.0013056744 -0.015441763 -0.024700087 -0.051499724 -0.0070463223 0.0025031278
0.022063928 -0.08385589 0.046649598 -0.053170323 -0.03892497 -0.054749433 0.021580651 -0.017959496
-0.00025039565 -0.014464294 -0.1004283 0.07206906 0.0017139289 -0.0019876682 0.043626647 0.060117226
0.032085177 0.040548053 0.007547292 -0.0025441549 -0.03199142 0.027337283 0.02613525 -0.009204699
0.045904975 -0.016221667 0.035253692 0.03907017 -0.021178009 -0.03899246 -0.019613037 0.0033491882
-0.03301199 0.015471513 -0.012588935 -0.02942813 -0.004085197 0.022099491 0.038128838 0.018654056
-0.0020461716 0.022293556 0.008432898 -0.06655297 -0.03712815 -0.008243235 0.032745168 -0.046517067
-0.0035154466 -0.018615937 -0.012503569 -0.041414697 0.01628228 0.02147478 0.0021399665 0.06697025
0.028107014 0.012992985 -0.0006911793 0.019983131 0.0054623596 -0.018858202 0.013150537 -0.033519756
0.028733952 0.055003334 -0.0060388185 0.020638911 -0.035432678 -0.0603241 -0.0030979062 0.0153440535
0.045657568 0.023670178 -0.014154646 -0.038769864 -0.043126564 -0.009317156 0.011139331 0.010219331
-0.015743466 0.025822027 -0.008148646 -0.052402813 -0.05823676 -0.05892228 -0.047740005 0.0031577356
-0.002428792 -0.03072032 0.0057841693 -0.006610169 0.07588817 -0.05677305 0.011249983 -0.009936538
0.002487105 -0.014677381 0.063350454 -0.004127421 -0.0006018526 0.020965438 0.010273329 0.032344688
-0.024104765 0.052180886 -0.03587709 0.008868031 -0.024714485 -0.00018296891 0.0047487174 -0.029847909
-0.027181365 0.033141375 0.033380184 -0.0025775896 0.0027923677 0.018176455 0.034435846 -0.016022708
0.0065653417 0.0025858863 0.0043002674 -0.018588733 -0.016691875 -0.014268751 0.049105857 -0.003385763
0.029482318 0.026066098 -0.005069309 0.024812622 0.016995328 0.013792604 0.017778428 -0.0016921279
-0.020473143 -0.060081214 0.03260579 0.017900493 -0.0037956398 -0.011506537 -0.009951746 -0.04982937
00000000: 5f07 87bb 5125 bcbd 5fbe 68bd a4d3 d2bc
00000010: d228 f83b f1ce 47bd edf4 86bd b95d a0bc
00000020: 1170 94bc 0b92 68bd 5770 543d 7221 f8bc
00000030: 5090 033d 575c e03d 9a72 9ebc 65ab fe3c
00000040: fcec 5b3d 6888 10bb cc61 18bd 87a6 a9bd
00000050: 5f00 3abc a06d 6a3c a25f aabd 6cbb 013b
00000060: 50cc b4bd e8cc 62bd 5c40 fe3c 0066 e6bd
00000070: 12ff b8bd e3a4 1ebd 3004 c1bc a852 59bd
00000080: f23c 8b3d e905 90bd a972 8bbd b27d 033d
00000090: 34ed 01be 88b3 8bbc 90a8 a6bd bc07 d1bd
000000a0: 65f4 ecbb 3cb6 e7ba d2b9 9eba 63d0 8c3c
000000b0: 088e 8bbd e7ec 833d 2c70 91bd 772b 833c
000000c0: 6fc1 89bc f4ca 7ebd ca09 cdbc 648e a2bc
000000d0: af7e aabc e5cc 9abd 2564 df3c 8087 733c
000000e0: 0595 d23d cc0c 30bd f816 41bb 86f2 bc3d
000000f0: 5519 2abd d30c ac3d 35a3 173d 95ee d9bc
00000100: 4b15 aebd a68e b5bc 790e 443d 9754 253d
00000110: d662 24bd a28e 7b3d 3630 a43d 9c1d 91bd
00000120: f32e a13a f5c4 933d cd48 d2ba 6d93 0abb
00000130: a4bb 7abd ca58 27bd bc30 743c 3510 713d
00000140: bae3 daba 7909 01be 26aa 07be 7937 29bd
00000150: dd7e d839 d5bd fa3d 8638 043d 1722 563b
00000160: 2e75 36bc ca15 35bd 833c 4b3d a6c0 25bc
00000170: e02c 6abc ba22 523a 3298 e8bc e49e 113d
00000180: fc8b cfbd e09f cfbd 0783 763d 9c29 dc3d
00000190: 4f2a 9639 f519 afbd 92b9 3bbd eb26 f4bd
000001a0: 3b3b 9f3c 020d e939 2a23 abba 73ff 7cbc
000001b0: d657 cabc 60f1 52bd d6e4 e6bb 840b 243b
000001c0: 69bf b43c a3bc abbd a613 3f3d 20c9 59bd
000001d0: ca6f 1fbd f140 60bd e8c9 b03c cb1f 93bc
000001e0: 8947 83b9 a5fb 6cbc 5aad cdbd f198 933d
000001f0: e9a5 e03a 8a43 02bb dbb1 323d 7b3d 763d
00000200: bf6b 033d b715 263d 464f f73b d6bb 26bb
00000210: 6f09 03bd 70f2 df3c 9819 d63c 4ecf 16bc
00000220: db06 3c3d 4de3 84bc 2d66 103d 0b08 203d
00000230: 817d adbc 8fb6 1fbd 85ab a0bc 0e7e 5b3b
00000240: 9537 07bd 3b7c 7d3c d241 4ebc 4313 f1bc
00000250: 1edd 85bb fe09 b53c fc2c 1c3d 64d0 983c
00000260: 1019 06bb faa0 b63c 232a 0a3c ec4c 88bd
00000270: b013 18bd a20e 07bc cc1f 063d ae88 3ebd
00000280: 6863 66bb 7380 98bc c5db 4cbc 75a2 29bd
00000290: 6b62 853c e1eb af3c ae3e 0c3b b327 893d
000002a0: ae40 e63c 87e0 543c 4230 35ba aab3 a33c
000002b0: 98fd b23b 847c 9abc 5a75 573c 034c 09bd
000002c0: 7763 eb3c 2d4b 613d 48e1 c5bb ef12 a93c
000002d0: db21 11bd 6716 77bd 3e06 4bbb a065 7b3c
000002e0: 6e03 3b3d f6e7 c13c e3e8 67bc 26cd 1ebd
000002f0: 7ba5 30bd fca6 18bc be81 363c fb6e 273c
00000300: 71f8 80bc b788 d33c e681 05bc 55a4 56bd
00000310: ab89 6ebd 7d58 71bd 068b 43bd 03f2 4e3b
00000320: 5e2c 1fbb 2ea9 fbbc 2189 bd3b 1e9a d8bb
00000330: 426b 9b3d dc8a 68bd d951 383c dccc 22bc
00000340: b3fe 223b 6679 70bc e2bd 813d 513f 87bb
00000350: a5c5 1dba b6bf ab3c 7751 283c dd7b 043d
00000360: 5b77 c5bc a0bb 553d dbf3 12bd 384b 113c
00000370: 0876 cabc 58db 3fb9 219b 9b3b 9a83 f4bc
00000380: 74ab debc 40bf 073d a9b9 083d c7ec 28bb
00000390: 2800 373b cae6 943c 9a0c 0d3d 0e42 83bc
000003a0: 1422 d73b f977 293b 42e9 8c3b 6647 98bc
000003b0: 66bd 88bc 7bc7 69bc 3923 493d ade3 5dbb
000003c0: e784 f13c 9288 d53c 721c a6bb d743 cb3c
000003d0: c939 8b3c 60fa 613c 11a4 913c 64ca ddba
000003e0: 4bb7 a7bc b817 76bd a68d 053d 0ea4 923c
000003f0: 45c0 78bb ea85 3cbc a60c 23bc e219 4cbd

model.model.8.bias f4 [8]
-0.0041270265 0.063240536 -0.006190416 0.033830263 0.1315258 0.048156247 -0.07049619 0.06717013
00000000: 023c 87bb 4184 813d f9d8 cabb 9a91 0a3d
00000010: b3ae 063e 7c3f 453d 4e60 90bd 7e90 893d
