utils/PINNs/weights/epoch=54851-step=1974672.ckpt (torch, 630683 bytes, 30 tensors)

model.model.0.weight f4 [128, 5]
00000000: 5fbd 3abe 66b5 723c 7371 63be abb2 2c3e
00000010: 1119 c3be 33e9 c6bc 8770 bfbe 0302 cdbe
00000020: b984 bebe ea44 81bd adf7 35bc 47f5 4d3e
00000030: 32eb d4bf b7b5 31bf 0b97 c4bc d420 69bb
00000040: ec18 babf ca61 253f b7da c23e 6199 a13d
00000050: c2ea a13e 1c9f aa3d a573 fa3d be04 dd3e
00000060: a286 4ebe 210e 113e 75bf 4bbe c0a2 a33e
00000070: fdde b63e 6a1b d3be dd43 3dbd e55e 32be
00000080: 2a75 1dbd 8d36 af3b 57fd 113e dde2 453c
00000090: b3e2 88bf 0cb8 363f d24b ec3e bd36 af3c
000000a0: e96c 91bb 0d0c 5fc0 f6a2 ef3e d248 273f
000000b0: d574 a33c ad0b 1fbd 94d2 9fbe 52f3 40bd
000000c0: 01ff 973e ea14 0f3e 934a 99bc 36d5 1f3e
000000d0: deb4 c2be 46aa 63bd 26f0 9abc 52cf d4be
000000e0: 9099 8dbe ca72 c33e 03fc da3c 397c b9be
000000f0: 789a 803b a323 ef3e b457 2cbf ee38 31bf
00000100: e7a4 f4bc c548 55bd 995e b83d 2979 d9be
00000110: af7c 1dbf b669 fd3d 7637 563e a230 ff3e
00000120: 08a2 10bf 558e 12bf 15ad f13d 2cb4 663a
00000130: 356e ca3e 3d9b 32bf 9430 e9bd b8a5 8a3e
00000140: 5c72 543e bcc8 853c 0315 b43d 086f 2dbd
00000150: 62cb 7bbe 62a5 9d3c 1c3c 6bbf bb22 113f
00000160: 96a9 893e 8e7b 783d d01f a5ba a1d4 c43e
00000170: 4dab ac3f 045c 4f3f 5480 b9bd 0845 3b3c
00000180: 7a67 1b3f 0237 5d3e c13a 8e3e 8b18 363d
00000190: 18d1 853c c847 4ac0 d771 f63e b4e3 44bd
000001a0: 8fca 873c c5cd a3bd c4c8 2fbd d02b 0b3f
000001b0: 67e6 f93e b024 b7bd ab2c 27bc 2624 3ac0
000001c0: 0246 5c3f 7511 283f 827f 973c 496d 323d
000001d0: cb6c 2dbe c0c6 dbbe 48b7 023e e9bd 253e
000001e0: 437b b5bc 1c67 0bbd 21f7 6e3e c4cd 89be
000001f0: 45b8 c0bb ddc1 873d 9ade d13e 36ab 24be
00000200: affe 63bc 7136 8c3e aec1 38be 0199 843d
00000210: 938e acbd ba0b d3be d0c9 25be c606 053b
00000220: eb5d 9b3e 0aa1 a23e 53ad 2ebd c3da 9dbd
00000230: 99d4 853d ab1f 02be 9422 d7bc c3d1 d63e
00000240: e087 abbd 3ed5 4abe 04dd 8bbe 1f05 0c3d
00000250: efdc a9be 9e1b acbe 640a 2e3c cf87 c8be
00000260: 9676 933d 41f4 923e 8ed5 863d 487e 123c
00000270: ef83 59bf 17d1 edbc 7588 16bf 2160 ea3d
00000280: ca36 41bd 7216 773d 0665 d0be 6e25 0e3e
00000290: 9838 5e3e 3361 cebc c929 92bd ac83 033f
000002a0: 1be9 1c3f 8dac 8b3d 23fd edbc b7b6 afbe
000002b0: bb5b b6bb dbc3 ab3d 35f8 9bbe 69fa a93b
000002c0: e0c2 aebf 5a7b c43e 4091 603f 1679 133d
000002d0: 7dc5 dfbc 361f 933c 7dc6 8e3e b232 cabe
000002e0: 69ac b0be f540 18be 40c7 83be bc33 6c3e
000002f0: efc9 a13e e727 debe 3553 c2be 74fa debe
00000300: 30c3 2c3e 4d4a b83e 4088 b1be 2838 37be
00000310: 6e7d 73bd e3e1 f8be 30b9 3c3e a698 4ebd
00000320: 40f8 febd 86f3 ed3c fcc5 0e3e 9cef 21be
00000330: dd6b b1be 8037 383d b186 65be b9da 20be
00000340: 0795 8abe d696 383e 0499 383e 48a9 d4bd
00000350: 204f 6fbd 9441 cebe 5391 a2bd d500 4dbe
00000360: f914 49bc 04da 10be c9db c03d 4636 afbd
00000370: e107 90ba 6ac7 03be 4399 a6be 5f26 86be
00000380: 4461 ec3d 0144 193b 3ebf 01c0 34b6 ce3e
00000390: 4692 873f 453b df3c 276e 91be f4e0 87be
000003a0: ccab bdbe c4b8 f93d d557 aebd 347b 28be
000003b0: 9fe3 de3e 8781 7abe 05cc 04bf 1e2e 4d3e
000003c0: 7139 8b3d 1418 163e 8b44 debe c47f a13d
000003d0: aa23 8f3e 17e2 81bc c8ee 37bf 6b57 81be
000003e0: 2ac7 c83e a6e5 523d 362b 99bb 41f7 31c0
000003f0: cccf 9d3f c6d7 693f edc6 d63c 3196 5cbe
-0.18236302 0.014813757 -0.22211246 0.16865031 -0.38105062 -0.02428112 -0.3739054 -0.40040597
-0.37210634 -0.063119724 -0.011106414 0.20113097 -1.6634276 -0.694179 -0.023997804 -0.0035572546
-1.4538856 0.6460234 0.3805749 0.07890583 0.31624418 0.08331129 0.12229089 0.4316768
-0.20168546 0.14165546 -0.19897254 0.31960106 0.35717002 -0.41231853 -0.046207298 -0.17419012
-0.038441814 0.005347079 0.14256798 0.012078014 -1.0694183 0.71374583 0.46151596 0.021388406
-0.004438032 -3.4851105 0.46804017 0.6534549 0.01995317 -0.038829494 -0.31215346 -0.04710705
0.2968674 0.13972822 -0.018712318 0.15608677 -0.38028616 -0.055582307 -0.01891334 -0.41564423
-0.2765622 0.38173515 0.026731497 -0.36227587 0.003924664 0.46706876 -0.67321324 -0.6922749
-0.029863788 -0.05207135 0.09002418 -0.4247525 -0.6151838 0.123736784 0.20919594 0.4984179
-0.5649724 -0.5724843 0.11800591 0.00088006514 0.39537206 -0.69768125 -0.11386219 0.27079558
0.2074675 0.01633107 0.0879307 -0.042342216 -0.24589303 0.0192439 -0.91888595 0.5669362
0.26887196 0.060664706 -0.0012597982 0.38443473 1.3489777 0.8099978 -0.0905768 0.011430033
0.6070477 0.21603015 0.277792 0.044457 0.016335055 -3.1606312 0.48133728 -0.048068717
0.01657608 -0.07998232 -0.042916074 0.5436373 0.48808596 -0.089425445 -0.010203521 -2.9084563
0.86044323 0.6565164 0.018493418 0.043561254 -0.16936032 -0.42925072 0.12765229 0.16185726
-0.022153502 -0.03403388 0.2333646 -0.269148 -0.0058813416 0.06628773 0.40990144 -0.16080937
-0.013915702 0.27385285 -0.18042633 0.06474496 -0.084256314 -0.41219884 -0.16190267 0.0020298227
0.3034509 0.31763488 -0.042645764 -0.07707741 0.065346904 -0.12707393 -0.026261605 0.4195691
-0.083755255 -0.19807908 -0.2731706 0.03418457 -0.3317637 -0.3361482 0.0106225945 -0.39166114
0.07200353 0.28701976 0.06583701 0.008941241 -0.8496694 -0.029030366 -0.58801967 0.114441164
-0.04717139 0.06032414 -0.40702075 0.13881466 0.21701276 -0.025192833 -0.07136876 0.5137279
0.6129319 0.06820021 -0.029051369 -0.34319088 -0.0055651343 0.08386966 -0.30462804 0.005187322
-1.3653221 0.3837536 0.87721634 0.03600415 -0.02731585 0.017959218 0.2788581 -0.39491802
-0.3450654 -0.14868529 -0.25737953 0.2306661 0.31599376 -0.43389818 -0.37954107 -0.43550456
0.16871333 0.35994187 -0.34674263 -0.17892516 -0.05944579 -0.48609838 0.18430018 -0.050438546
-0.12449694 0.029046785 0.13942713 -0.1581406 -0.34652606 0.044974804 -0.22414662 -0.15708436
-0.27066824 0.1802629 0.18027121 -0.1038385 -0.05842507 -0.40284407 -0.07937875 -0.20019849
-0.012273067 -0.14145666 0.09416921 -0.08555274 -0.0010988676 -0.12869039 -0.32538804 -0.2620115
0.115419894 0.002338648 -2.0272975 0.40373385 1.0591514 0.027249942 -0.28404352 -0.26538813
-0.37045133 0.12193444 -0.085128464 -0.16453248 0.43533036 -0.24463473 -0.5187381 0.20037124
0.067980655 0.14657623 -0.4341167 0.078856975 0.27956897 -0.015854878 -0.71848726 -0.25262007
0.3921445 0.05148854 -0.0046743406 -2.7807162 1.232904 0.9134487 0.026217902 -0.21541668

model.model.0.bias f4 [128]
00000000: 951f b93e 2383 893d e249 c5bf 845e c73e
00000010: ee02 83bd 4429 3d3e dffe 243d dd8c f53e
00000020: d7d8 a73e 508f 8b3e 0587 37bf 319a cfbd
00000030: 3527 a9be c023 f0be 483c a0be aadf 38bc
00000040: 6315 8f3e 3316 1a3d bea6 963f 3a29 f8be
00000050: f3c3 803e 9bd5 8d3d c630 133f 5e30 d2be
00000060: a806 4cbe 0058 ecbe fae4 613e 5ec3 153e
00000070: 2eab 413e f329 873e e992 013d b5dd 5bbe
00000080: 2f81 543e c11e 173d e412 79be aa05 413f
00000090: b632 0d3d 03b8 db3e 7d2f e1be 2689 81bd
000000a0: 633c d1be 17eb 9fbe ac57 99be fbf1 e13e
000000b0: 0cc3 29bf 00fd db3e f668 81bd d568 96be
000000c0: d446 00bf 2549 40bd 24d1 7a3f a783 95be
000000d0: fdd7 28bf 4599 15bf ff3e ac3e 285a dfbc
000000e0: ba40 273f 8970 62bd f6c1 053f 7b23 383e
000000f0: f177 89be 5bc6 28bf ff12 4cc0 002c 51bc
00000100: 5931 abbe ea35 053e aa16 833f 94e2 ccbe
00000110: 723e ccbe 8654 733c 91d6 c4be c2b3 763f
00000120: 7e4c e2be e00a 993d 9a85 b63d efdc 5f3e
00000130: d8cb 08be d22e 38be dddc 17bf 35fa 143d
00000140: 31de db3c f732 0e3e 6fb4 dc3e ef7a a6be
00000150: fd42 42be 6ef2 3bbe 6366 97be ab34 52be
00000160: 99f2 a2be 4445 0dbf 8d45 5d3f 2746 05be
00000170: a29c 35bf 7cc6 29bf bfc6 473e 1366 87be
00000180: 12a0 e2be 8658 db3c 3c83 593f b074 bfbe
00000190: 45a4 aa3b fcba c3be 0f77 3dbd cd16 c3be
000001a0: e712 783d 98f2 23be 01f5 ffbe 7073 9fbe
000001b0: 77c3 ddbe 5ab7 1c3e c8ab 34be 84c3 1d3a
000001c0: b0d8 15bf 0abb 38be 38bd a6bf 4cf2 0b3f
000001d0: e31d 233e ac68 cc3e 7219 043f 2b7a 693d
000001e0: 0270 d0be e236 f83e ace6 a1be 4ed8 0dbf
000001f0: bef8 b5bd b7f7 f43e e80f a53e 6d5a 103f
0.36156908 0.067144655 -1.5413172 0.38939297 -0.06397043 0.18472773 0.040282127 0.47959033
0.32782623 0.27257776 -0.716904 -0.101368316 -0.33037725 -0.46902275 -0.3129599 -0.011283794
0.27946004 0.037618827 1.1769636 -0.48468953 0.25149497 0.06925508 0.574963 -0.41052526
-0.19924414 -0.4616089 0.22060004 0.14625308 0.18912956 0.26399192 0.031634245 -0.21471293
0.20752405 0.036894564 -0.24323612 0.7539927 0.03447219 0.42913827 -0.43981543 -0.06324987
-0.40866384 -0.31234047 -0.299497 0.4412993 -0.6631324 0.4296646 -0.06318848 -0.29376855
-0.50108075 -0.046944756 0.97975373 -0.29202005 -0.6595457 -0.58436996 0.33641812 -0.02726467
0.6533314 -0.055283103 0.52249086 0.17982285 -0.2684932 -0.65927666 -3.1886594 -0.012766838
-0.33436087 0.13008848 1.0241292 -0.40016615 -0.39891392 0.014851695 -0.3844495 0.9636804
-0.44198984 0.07472777 0.08912201 0.21861623 -0.1335901 -0.1798661 -0.59321386 0.03637143
0.026839348 0.13886629 0.4310641 -0.32515666 -0.18970867 -0.18354198 -0.29570302 -0.20527904
-0.31825712 -0.55183816 0.8643425 -0.13015042 -0.7094213 -0.6631849 0.1950941 -0.26445064
-0.4426275 0.02677561 0.8496587 -0.37393713 0.0052075707 -0.38228595 -0.04625612 -0.38103333
0.0605649 -0.16010511 -0.4999161 -0.3114276 -0.4331319 0.15304318 -0.17643654 0.0006018209
-0.58533764 -0.180401 -1.3026495 0.5466659 0.1592937 0.39923608 0.51601326 0.057001274
-0.40710455 0.48479372 -0.316213 -0.5540818 -0.088853344 0.4784524 0.32238698 0.5638798

model.model.2.weight f4 [128, 128]
00000000: 5764 18bd 6757 3fbd 6f03 bbbc bad1 183d
00000010: abb9 333c d5ec 0fbc eb9f b5bd 4c9a 0f3c
00000020: 42c3 dbb9 192e 243d 5e45 053c a228 be3d
00000030: 2e9a c3bc ef9a 5c3d 622a 0d3d 73f5 773d
00000040: e514 6a3d e26a bbbd 982d 233d ceb5 8abd
00000050: a3d8 97bd bb8e 55bd 5277 91bd 2520 c3bd
00000060: 94b3 763d 8012 62bd e64e 9f3d 335b a53d
00000070: 07de 3c3d ea66 9e3d 6474 29bc 1206 cdbd
00000080: 5556 163d 28a2 b8bd b935 0d3d efb1 3abd
00000090: c0bb 8b3d 6692 903d 2cd6 e53b 0360 33bd
000000a0: 06e1 a33d 4077 35bd 22db a3bd e344 8bbd
000000b0: edeb c8bd 8b8f 933d 164e 903d f6c0 1fbd
000000c0: a31b b03c 79d8 1d3d 4df4 55bd b254 5cbb
000000d0: 37ad eabc d1e5 4abd 2a2d 6dbd c194 02bd
000000e0: d92c 0e3b 6f75 833a 66a5 0cbe 3407 c3bd
000000f0: 7c4d 34bc 51b8 9d3c 515f 273d 47f1 4dbd
00000100: 9cbb 053d ff4d 90bd 821b 24bd 08e2 733d
00000110: 933e 0a3d 9e54 ab3c be77 96bd f72f 8dbd
00000120: 7d1f d9bc 36ac be3d 70c6 9abd 94c2 283d
00000130: 70f9 f5bc f4b7 96bd 41d2 623d dd6c 63bd
00000140: e5de 323d aac5 26bd 9016 993d 8ff3 c9bd
00000150: 8332 6d3d 8766 1d3d 8649 043d 32ef b53d
00000160: 32a6 823d cdca 143d a2dd 543d 6689 6f3d
00000170: 314d 4b3d 5a6a dd3c f745 47bd 4463 0d3d
00000180: 73c2 103c 9bdd fb3c 1da9 123c 555b 0e3d
00000190: bc8c 8abd 0f2f 9bbd 85f4 25bd 5a92 b23d
000001a0: 29ee 39bd b97d 9bbc 9b43 16bd 7eaf c4bd
000001b0: 2dcb b2bd c2c4 9fbd cc3f 82bd 0940 a7bd
000001c0: cc48 aabc e733 873d d01f 49bd db93 0bbd
000001d0: bb76 d3bc b416 4dbd d668 333d 21b6 74bd
000001e0: d0b0 6dbd 8f38 d33c 2c58 91bd 557c 203d
000001f0: 9161 b8bc f51a ca3c eb02 593d 28a9 103b
00000200: 1837 b5bd 04e0 ffbc d7c2 963d aea1 adbd
00000210: 2841 923d 9883 8ebd 8b5b 01bd d2c7 953d
00000220: 0b6c fa3c d561 bebd 7652 a7bc 0aff 8abd
00000230: 1175 d9bc f774 3f3d cf80 063d 65f2 bebd
00000240: 5915 d1bc 8194 94bd be8c 73bd acf2 193d
00000250: 49ea 953d 29da b23d 41f4 843d 3801 99bd
00000260: eb40 593c 91f6 92bd ecbc afbd 3561 9ebd
00000270: 57e8 a23d 3198 39bd 572b 6f3d 698d 8abd
00000280: 4d47 893d b09f 82bd b39e bb3c fa2d aebd
00000290: bdda 1fbd e9ab dfbc bf4f 17bc 601f 48bd
000002a0: c92d bcbc 0196 a8bc 6ce8 5e3d ad42 bcbd
000002b0: 52ba 9bbd 7df9 cf3d 4900 ebbb 2cbd 03bd
000002c0: 758e 8abc 4b99 973d d3a1 df3a 723e 543d
000002d0: d13e 013d b9a4 79bd 9363 a3bc 475b ebbc
000002e0: 7c33 263c 0763 67bd fcb7 3b3e 8b86 933d
000002f0: 0d14 943c 5cb4 133d 4413 8d3d c523 283d
00000300: 77c2 9c3d 9bfb e33c 7269 b4bc 0cb2 a23d
00000310: c1e9 bc3b cb3b 51bd 45d3 633c f15c 4ebc
00000320: 892e 47bd 6930 493c aa38 f7bc 8b5e 90bd
00000330: 21e7 c8bb bcf7 9b3d 5bd9 2bbc 41bc 073c
00000340: f928 7dbb ba79 8abd 8f18 173c 3962 99bd
00000350: cf27 143d 3099 943d 2a0a aa3d cda4 b6bc
00000360: ae63 b7bd 1935 ef3b f727 8b3d 3f10 803b
00000370: 1382 c9bd 60df 943d 96ef adbd f9fe 363c
00000380: 2cf6 a63d 4b0c 25bd 2745 8fb9 7e1b d03b
00000390: 3118 d1bc 564a 003d ac33 853c 6c3d ebbb
000003a0: cfb3 a4bb c84c 39bd ef1f b4bc 4022 97bd
000003b0: 98d1 9d3d abaa 59bc 3517 e13c e800 b93c
000003c0: c712 523d 3739 19bd 2c87 93bd bfcb 77bc
000003d0: ccb6 9cbd e1b2 d13d aaae 45bd 750d d0bd
000003e0: 4930 ca3c 949a af3d a3a5 9cb9 0648 763d
000003f0: 5ddb 653d c9a7 793d db41 c3ba 6fa7 163e
-0.037205067 -0.046714213 -0.022828786 0.037309386 0.01096956 -0.0087844925 -0.088683926 0.008764815
-0.00041916413 0.040083025 0.008134214 0.09285094 -0.02387723 0.053858694 0.034464248 0.060536813
0.057148833 -0.09151246 0.039838403 -0.06772958 -0.07414367 -0.05213807 -0.07102837 -0.095276155
0.060229853 -0.055193424 0.077787206 0.080740355 0.04611018 0.07734473 -0.010342691 -0.100109234
0.036703426 -0.09015304 0.034475062 -0.045579847 0.0682292 0.07059173 0.0070140567 -0.043792736
0.08001904 -0.04430318 -0.08000781 -0.068002485 -0.09810624 0.07205113 0.07046144 -0.03900238
0.021497553 0.038536523 -0.052234937 -0.0033619818 -0.028647048 -0.049535576 -0.0579044 -0.031880144
0.0021694212 0.0010029505 -0.1373497 -0.09522858 -0.011004802 0.019252928 0.040862385 -0.050278928
0.03264962 -0.070461266 -0.040065296 0.059541732 0.03375108 0.020914372 -0.07347058 -0.06893914
-0.026504273 0.093101904 -0.0755738 0.04120119 -0.030026168 -0.07359305 0.055376295 -0.055523742
0.0436696 -0.04071585 0.074750066 -0.09860908 0.0579095 0.038427856 0.03229668 0.088835135
0.063793555 0.03632622 0.051969178 0.058480643 0.049634162 0.027028251 -0.048650708 0.034518495
0.008835423 0.030745318 0.008951453 0.03475507 -0.06765124 -0.07577335 -0.040516395 0.087193206
-0.045393143 -0.018980848 -0.036685567 -0.09603785 -0.08730159 -0.078012004 -0.063598245 -0.081665106
-0.020786665 0.066016965 -0.049102604 -0.034076553 -0.025813451 -0.05007048 0.04380115 -0.059744004
-0.05802995 0.025783805 -0.070968956 0.039181072 -0.02250746 0.024671057 0.0529813 0.0022073481
-0.08848399 -0.031234749 0.073613815 -0.084781036 0.07141334 -0.06958693 -0.031581443 0.07313503
0.030569097 -0.09296004 -0.020425063 -0.06786926 -0.02654508 0.046742406 0.032837685 -0.09323577
-0.025522875 -0.07254887 -0.059460394 0.037584946 0.07320077 0.08733017 0.064919 -0.074709356
0.013260107 -0.07175935 -0.08580956 -0.077333845 0.079544716 -0.045311157 0.05839094 -0.06765253
0.06703053 -0.06378114 0.022902822 -0.08504863 -0.039026964 -0.027303653 -0.009235322 -0.048858047
-0.02297105 -0.02057934 0.054420874 -0.09192405 -0.07603897 0.10155008 -0.007171665 -0.03216283
-0.016913632 0.07402285 0.0017061777 0.051817365 0.031554047 -0.060948107 -0.019944942 -0.028730048
0.010144111 -0.056490924 0.18331903 0.072033964 0.018075967 0.036060676 0.0688844 0.041049737
0.07654279 0.027829936 -0.022022936 0.07944116 0.0057651703 -0.051082414 0.013905351 -0.012595401
-0.048628364 0.012279608 -0.030178387 -0.07049283 -0.0061310683 0.07615611 -0.010488833 0.008284629
-0.0038629158 -0.06761499 0.009222164 -0.074894376 0.036170777 0.07255781 0.0830272 -0.02229538
-0.08954559 0.007300031 0.06794732 0.0039081867 -0.09839263 0.07269168 -0.08492963 0.011169189
0.08152422 -0.040294927 -0.00027326608 0.0063509336 -0.02552423 0.031320892 0.01625999 -0.007178953
-0.0050263177 -0.04523924 -0.021987883 -0.073795795 0.077059925 -0.013285319 0.027476886 0.02258344
0.05128744 -0.03740808 -0.07203516 -0.01512426 -0.07652053 0.102391966 -0.048262276 -0.10158817
0.024681227 0.08574405 -0.00029878048 0.06012728 0.056117404 0.060951028 -0.0014896946 0.14712308

model.model.2.bias f4 [128]
00000000: b1e8 133d d259 97bd c06c 78bd cbec b13e
00000010: 0f14 983d ef16 ac3c dbb0 903d 7402 5d3d
00000020: e7b1 9b3d bd91 9ebc c7a7 7ebb eb8e 24bc
00000030: ab1e 8f3d 9ab6 393d 7187 1f3d fd3a ad3d
00000040: 6672 7bbc c105 7f3e 05b1 1e3e 4b9e b63d
00000050: 6e1b a2bd 1caf fbbd a3d3 c1bd 1530 d93b
00000060: 31fa c73d f300 de3d 500f 5dbd 5ca0 943d
00000070: c142 70bc 3579 35bd fa0f 02be 00f6 8ebd
00000080: 01ab 4a3e 0051 50bc 4878 e83d 4a20 123e
00000090: 7e86 8fbd b481 25bd e025 ff3d bc7a 783d
000000a0: fd99 73bd 0f99 633d 8087 643e cf73 fb3c
000000b0: 1d5a 153d e3f4 28bc bb85 19be d870 87bd
000000c0: d0d3 fabd 746e 8e3d 673b 13bd df36 62bd
000000d0: 838f db3d 032e 0f3d b8e7 893e 1a4d 86bd
000000e0: 93b8 a93d be20 a03a 17c2 c73c 0ab5 c63e
000000f0: 0c6f 8d3d 3dbf 413d 18ad 86bd 162c 513e
00000100: 4d01 943d c9a2 0ebd e0bc 26bd 6a24 433d
00000110: cade b5bc 58c7 a1bc cff6 34bd 0f61 8a3b
00000120: 385f 49bd 0f05 b43d 0993 063e 35bd 753c
00000130: 5d3f 02bc d000 95bd d464 113d 7820 2c3d
00000140: c68e febb e7af 133d 5d04 b63b 8f68 953e
00000150: 8b0e 0cbe 79ca 0abd f8ac 49bb f95c 2b3f
00000160: 1dc5 ca3d afbe d23d 5e22 f13c a563 88bd
00000170: aad0 103e 4123 133d d2b3 3fbd e080 f6bd
00000180: 898c 863d 2b12 21bd 3b94 8cbd bf8f db3c
00000190: 2e6e 4ebd 4f54 203f e493 863e 739c 933e
000001a0: 8189 313e 2672 983d e679 023f 7c98 8e3d
000001b0: 7f8b 32bc 623d 9ebb 3da6 363d 9b3b fd3d
000001c0: a47b bbbd ffc0 08bd 244e 07bd c095 1bbb
000001d0: 35b3 923d 37d4 8ebc a1f9 72b9 059a 22bc
000001e0: 82c7 b9bb 5e21 2bbd 63ae 223d d16f 813d
000001f0: 3428 9a3d 1289 60bd 2272 233f 7923 acbd
0.036110584 -0.07390179 -0.060650587 0.3475097 0.07425701 0.02100703 0.070649825 0.053957418
0.076022916 -0.019356603 -0.0038857327 -0.01004384 0.06988271 0.045340158 0.038947526 0.08458517
-0.015347099 0.24904539 0.15497215 0.08916911 -0.07915388 -0.12289259 -0.094641946 0.0066280463
0.09764517 0.10840025 -0.05396968 0.072571486 -0.014664353 -0.044305045 -0.12701407 -0.069805145
0.19791795 -0.012714624 0.11351067 0.1427013 -0.07008074 -0.040406898 0.12458396 0.060663924
-0.059473027 0.05556589 0.22317314 0.03069487 0.03646289 -0.010312292 -0.1499242 -0.0661332
-0.12247431 0.06954661 -0.035945322 -0.05522811 0.10720732 0.03495599 0.269346 -0.06557675
0.08287158 0.0012216789 0.024384541 0.38809997 0.06905946 0.04730152 -0.06575984 0.20426974
0.072268106 -0.034823213 -0.04070747 0.04764215 -0.02220096 -0.019748375 -0.044180688 0.004222996
-0.049163073 0.08790027 0.13142027 0.014998724 -0.007949677 -0.072755456 0.035496548 0.042023152
-0.0077684848 0.036056425 0.0055547194 0.29181334 -0.13677423 -0.0338845 -0.0030773263 0.6693874
0.099008776 0.10290276 0.029435333 -0.06659631 0.14142099 0.035922293 -0.04680235 -0.120363
0.06569774 -0.039323967 -0.0686421 0.026801942 -0.050398044 0.62628645 0.26284707 0.288303
0.1733761 0.07443647 0.5096725 0.06962678 -0.010897516 -0.0048290947 0.04459213 0.123648845
-0.09154442 -0.03338718 -0.033033505 -0.002374038 0.07163087 -0.017435176 -0.00023171912 -0.009924416
-0.005669535 -0.04177987 0.03971709 0.063201554 0.075271994 -0.05481822 0.6384603 -0.08405203

model.model.4.weight f4 [128, 128]
00000000: 8381 093d 4f0e 2a3d 6d5f a53d e943 b5bc
00000010: 5f7f ac3d 385e d33d 850b 3c3e 5076 963d
00000020: fdb6 c4bc 9d68 ee3c b801 e43d 1d0b 023d
00000030: 9f55 793d 5426 ec3c dd5e d03d 2ccf b33d
00000040: 3453 d03d 06c4 b33d b524 4d3e 673d 85bc
00000050: 5cfd a83d 4741 773d 38bf 3bbc 28b8 a73d
00000060: 9e0a 313e e1ab 673d 5ec8 9a3d 709a e83d
00000070: 9f82 fe3d a2b2 9f3d 5ea5 b73d 7ce9 a73d
00000080: e813 e7bd 716e cd3c d8c0 283c eb50 133e
00000090: 173d f03d 13ee 4d3c edc4 ad3d 6e05 983d
000000a0: d022 e53c 4cf3 b73d a6f4 653e 490f 673c
000000b0: f90d 2a3e 4e75 a33d df94 a73d 3eca 283e
000000c0: 77ee 5abc 6774 013e 322a 103e 0272 ff3d
000000d0: b45e 2a3e 4ebc bf3d c5b9 323d cbc2 343d
000000e0: a74d 6b3e 4630 06bd d6b8 f63c fe21 47be
000000f0: c340 853d 3571 3e3d 5de5 a03d 5624 bf3d
00000100: 7303 b4bb 28ee 943d 91dd 40bc 7aeb a9bc
00000110: 6d3c 2a3d 0434 4e3e 2477 c33d a177 ec3c
00000120: 10ed c63d a521 543d 2e6f 94bd 59b5 243e
00000130: e7da 063c f90e fa3d ad6a 133d e688 c83d
00000140: bb3d ac3a 996a 703d dfdb 4b3d 97ff 8e3e
00000150: b1fb 3f3c d004 b63d 5be3 353e 6fd2 4f3e
00000160: e211 cb3d 748a 373e 3731 093e e9ad 393d
00000170: bf64 773d a74e 453d 4afa 403e 79c4 4b3c
00000180: ad13 523d 615c 123d 429c 903c a514 dd3d
00000190: 84e9 923d f3a7 033e de36 c03d 9ad1 54bd
000001a0: 1de6 a93d 4d30 4dbc 7863 9c3e 34ed 343e
000001b0: b90e 453d 2d41 8a3b a521 8b3d 57be c1bc
000001c0: 228d fd3d 130f 45bc ab9d 373e 03cf 3c3e
000001d0: 21b4 34bc 9aaa b83d 0741 463e 46a3 e93d
000001e0: 21ab 293e a5ce 4abe 3e04 be3d 6438 dd3d
000001f0: 395e 1b3e fad8 00bc 2ccf af3c a5e4 123e
00000200: a6c1 3d3b 977a 2abc 34e5 023e c855 d03d
00000210: bcbc da3d bf72 2c3d e0ad c1bc 1b64 8c3d
00000220: 838e 61bd f650 653b c9e3 3e3e 7f3b 8e3b
00000230: c634 013d 079f 083e 3f87 a3bc 5433 edbb
00000240: b7d2 2abc 7bf2 033e eb88 973d d707 933c
00000250: a643 bdbb f8a1 923b dfa0 fd3d 4b07 493d
00000260: 37fc 943b 533d ea3d 2d44 433d 1f80 d43d
00000270: e49b d93d 6b69 433d 86cd 393c 7d8d 1d3e
00000280: ea2f a5be 0921 573d ab84 053c 0f4c 2abd
00000290: 20d7 1b3e e33c 153e 0798 f8bc c983 0e3e
000002a0: a901 f93d 86b3 d53c 7db4 eabd 446c 113e
000002b0: bdf7 173d 7634 05bd caad ef3d 30be f33c
000002c0: 6e7a fbbd 4022 053e e423 0c3e 18f9 813d
000002d0: 1204 e83d 803d c63b 9acd c83c 9fd0 933d
000002e0: d37e d1bd 87d8 e83d 3528 123c ef52 4abd
000002f0: 063d 46bd 2119 943d b5ba 513c fd9b 643e
00000300: 93c7 da3d cc48 cd3c 6033 103d d5e3 0c3e
00000310: 403d a53d 82b4 323d f3d4 183d 3ff9 25bd
00000320: 6e44 29bb 4f3f 483d bd04 c63d 5e8a 13bb
00000330: 1c40 343d 485d 283e ca06 0bbc 2f3f db3d
00000340: 6231 4d3c 62ef 273c b14a 253d 7ffe 193d
00000350: 1ba4 723d b92b c73d 5163 cf3d 98a6 0d3e
00000360: d9e9 cf3d d511 c13d 6370 1f3e 94f2 ecbb
00000370: 915d 4cbe 9a8d f13d 2402 213d 2a9c 693d
00000380: da9b 473c c22e 083e 6111 44be 2e1a b6bc
00000390: 4210 323a 576b 493e bb58 0a3e f6c8 dfbd
000003a0: 6fb2 093e 905a d43c 26e9 b1bd 226f 273d
000003b0: 7c7c 39ba 4626 b43c 94bb 013d 83ac 933d
000003c0: 904c 003e 6999 ed3d df06 8f3d c603 efbc
000003d0: 1b5c 2b3e a430 5a3d fcd5 063e 7d47 073e
000003e0: 8fcc 083d cb41 b5bd 0bf4 e43d 60fb 5e3c
000003f0: e0e2 dabc b9d3 1b3e d7cd c33d 2feb d23d
0.033570778 0.041517552 0.08074842 -0.022127109 0.084227316 0.10320705 0.1836377 0.07346785
-0.024013037 0.029102618 0.1113314 0.03174888 0.06087267 0.02882687 0.10174344 0.08779749
0.1017212 0.08777623 0.20033534 -0.01626463 0.082514495 0.060364988 -0.011459164 0.08189422
0.17289206 0.0565604 0.07557748 0.113575816 0.12427258 0.077977434 0.08967088 0.081988305
-0.11283094 0.025077077 0.010299884 0.14386337 0.11730402 0.012568968 0.08484826 0.07422911
0.027970701 0.08981952 0.22456607 0.014102765 0.16606893 0.079813585 0.08182692 0.164834
-0.0133625185 0.1264206 0.14078596 0.12472917 0.16637689 0.09362088 0.043634195 0.04413108
0.22978841 -0.03276088 0.030117434 -0.1944656 0.06506493 0.04649468 0.078562476 0.093331024
-0.0054935752 0.07271987 -0.011771576 -0.020742167 0.041561533 0.2013703 0.09544209 0.028865637
0.09713185 0.0517899 -0.07247768 0.16084804 0.008230901 0.12209887 0.035990406 0.09791736
0.0013140956 0.05869541 0.049770232 0.27929375 0.011717723 0.08887637 0.1776251 0.20295118
0.0991552 0.1792391 0.1339768 0.04533187 0.060398813 0.04817071 0.18845478 0.012436979
0.051288296 0.03573263 0.017652635 0.10794953 0.07173446 0.12857036 0.09385465 -0.051957704
0.08295844 -0.012523723 0.3054464 0.17668611 0.048109744 0.0042191953 0.067935266 -0.023650331
0.123804346 -0.01202752 0.1793124 0.18438344 -0.011029274 0.09016915 0.19360743 0.11408095
0.16569187 -0.19805391 0.09278153 0.10801771 0.15172662 -0.007864231 0.021461092 0.14345033
0.0028954535 -0.010405204 0.12782747 0.101726115 0.106805295 0.042101618 -0.02364248 0.06855031
-0.05506755 0.0034990883 0.1864158 0.0043405886 0.03154447 0.13341914 -0.019961951 -0.007238785
-0.010426215 0.12885468 0.07399162 0.017948074 -0.0057758866 0.0044748746 0.12384199 0.04907922
0.004546668 0.11437478 0.04767244 0.10376 0.10625437 0.047707956 0.0113405045 0.15386005
-0.32263118 0.05252174 0.008149306 -0.04157644 0.15218782 0.14574008 -0.03034593 0.1391746
0.1215852 0.02608658 -0.11460207 0.14201456 0.037101496 -0.032520734 0.117030695 0.029753774
-0.12279211 0.13001347 0.13685566 0.06346339 0.11328901 0.006049812 0.024512101 0.07217526
-0.10229268 0.11369424 0.008920719 -0.049395498 -0.04839804 0.072313555 0.012800862 0.2232513
0.10682597 0.025059126 0.035205245 0.13758786 0.08068323 0.043629177 0.03731246 -0.040520903
-0.002582814 0.0488885 0.096688725 -0.0022512893 0.044006452 0.16441834 -0.008485505 0.10705411
0.012523981 0.010249944 0.040354434 0.037596222 0.059238534 0.09725136 0.10126365 0.13833082
0.10152025 0.09427229 0.15570216 -0.007231066 -0.19957568 0.117945865 0.039308682 0.057033695
0.012183154 0.13299087 -0.19147255 -0.02222928 0.0006792584 0.19669853 0.1351041 -0.10927002
0.13446973 0.02592209 -0.08687048 0.04087747 -0.00070757396 0.021990906 0.03167303 0.072106384
0.12529206 0.11601526 0.069837324 -0.029176604 0.16734354 0.053269044 0.13167566 0.13210864
0.033398207 -0.0885044 0.1117936 0.013609737 -0.02671951 0.15217485 0.09560745 0.10298764

model.model.4.bias f4 [128]
00000000: 5982 02be 4a76 cbbd 3d16 f2bd 0342 9a3d
00000010: 9e46 073d b8f1 fa3a 5a76 b3bd 6534 813d
00000020: d619 1dbe 546e 51bd 477f cdbd 8905 31bd
00000030: 63eb be3d 2fe1 11be 9446 a2bd ed69 123e
00000040: 0d82 65bd b85b 3a3d 0e9c b7bd c8fb 1fbe
00000050: 4d93 0cbe 0be1 00bd 21d6 61bd fb24 0e3e
00000060: 0034 a73c 6803 39be 7b3b 62be 0d34 ca3d
00000070: 1479 77bd 8d4f d1bd eb21 473d a773 33bd
00000080: aef6 40bd 5efb bf3d 5d1f b13d b762 78bd
00000090: 5e69 aabc c758 e4bd eb01 a1bd 09b3 97bd
000000a0: af7f 653d de68 15be 049c 8dbd 0ebc 27be
000000b0: 5722 20bd ac1b 4e3e 06e5 ddbd 21fe 83bd
000000c0: 2dbd 8e3e 9206 703e 4dc3 b4bd 9723 fe3c
000000d0: c675 dcbd e644 973d 4cc3 d4bd a867 cf3d
000000e0: 8ac2 cabc d547 ee3d ba3f 013c f8d2 eebd
000000f0: 2695 59be be74 2ebd af38 2c3e 6918 97bd
00000100: 9914 ecbd f78f 3bbd 8ca3 9d3e 5f20 b3bd
00000110: b15f d93c c7f3 2bbd 149f 4cbd 15a2 74bb
00000120: c3e8 76bd 1677 0c3d 2883 b33d 59f8 08bd
00000130: a76e 373d 27b4 c33d 9a4f 89bd d953 eb3d
00000140: 9336 04bd b579 453e 5c2e acbd ab84 fcbd
00000150: 4159 5c3e 01cf 273e eea7 28be a49a 463d
00000160: 1cec cd3d 94eb 5f3d bb36 84bc 45f4 8fbd
00000170: 4cff 87bd f659 f0bd 6f93 3abe dcbb 3ebe
00000180: 572a 1bbd 30cf 37be 0329 84bd 85d3 ed3d
00000190: 3d97 7f3e 857c 0c3e 483b aabd bdce ff3d
000001a0: c642 a73d 0ec0 84bd 9c6d 0dbc c8d4 abbd
000001b0: d772 cebd 2544 f53b c75e 313c 5a88 02be
000001c0: ca20 453e 2a30 e23d 46f8 0a3e 3a9d 21be
000001d0: 268f f7bd 5116 08be 6c3c a73e a8c5 a43c
000001e0: 4dcc f03d bfce 3e3e d0d1 983d a2c5 d4bd
000001f0: 23ca ba3d f347 213c a7d5 823c 620e 0ebe
-0.12745036 -0.09934671 -0.11820648 0.07532122 0.03302633 0.0019145524 -0.08762808 0.063088216
-0.15341887 -0.051130608 -0.10034042 -0.04321817 0.0932224 -0.14246057 -0.07923618 0.1429822
-0.05603223 0.045497626 -0.08965312 -0.1562339 -0.13728066 -0.031464618 -0.05513585 0.13881294
0.020410538 -0.18067706 -0.22093002 0.09873209 -0.060418203 -0.10220251 0.04861633 -0.043811467
-0.047110252 0.09374116 0.0864856 -0.060641017 -0.020802196 -0.111497454 -0.07861694 -0.07407195
0.05602997 -0.14590785 -0.06914523 -0.16380331 -0.03909525 0.20127743 -0.108346984 -0.064449556
0.27878705 0.23440006 -0.08826313 0.03102283 -0.10764651 0.07386188 -0.103888124 0.10127193
-0.024750967 0.116347946 0.007888729 -0.11661333 -0.21248302 -0.042591803 0.16818498 -0.07377703
-0.11527366 -0.045791592 0.3078884 -0.08746409 0.026534887 -0.04198053 -0.049956396 -0.0037328054
-0.060280573 0.034293257 0.087652504 -0.033439968 0.04478326 0.09555846 -0.06704636 0.11490602
-0.03227861 0.19284709 -0.0840728 -0.12329992 0.21518423 0.1638756 -0.1647031 0.04848732
0.100548 0.054668024 -0.016139379 -0.070290126 -0.06640491 -0.11735909 -0.18220304 -0.1862635
-0.037882175 -0.1795013 -0.06453135 0.1161261 0.24960037 0.13719375 -0.08312088 0.12490604
0.08167033 -0.06481944 -0.00863209 -0.08390194 -0.10080498 0.00748493 0.010825819 -0.12747326
0.1925079 0.11044343 0.13571271 -0.15782633 -0.1208785 -0.13289763 0.32663286 0.020113781
0.11757717 0.18633555 0.074618936 -0.10389258 0.09120586 0.009843814 0.015971018 -0.13872674

model.model.6.weight f4 [128, 128]
00000000: 3ec9 fc3d 2873 293d ab8f e2bb 2f06 28bd
00000010: 15e6 4fbe a1eb 17bb 6863 a83d 70db 1bbd
00000020: cac9 a4bc 2a8d ed3d 86db 943d e767 f6bd
00000030: 95ac d9bd 5a5c 1b3d 6071 6e3b e72b e3bd
00000040: 3ab9 bb3c ab17 4dbd a215 bd3d e31f 133a
00000050: 1cb7 993d 2aee 663d a4c4 683d 94a8 39bc
00000060: 1d00 57bc e9df 313c d8e8 eb3d 0817 e63c
00000070: 8975 653d ad30 0c3e 4ea9 f73d 54b4 fe3d
00000080: 0866 3e3d 045f 6ebb 7b16 4f3d 1385 b8bb
00000090: c5c8 113e b558 9dbc 1022 8a3d 03d1 293e
000000a0: bb06 c73d a920 0c3e 472b 023d 9087 953a
000000b0: 9f40 eb3d b130 d13d 7a87 123d 70ab ca3d
000000c0: 6a07 f7bd 83b6 10bc fa4b a9bd c05a 0bbd
000000d0: 5d7f c13c 248d 643d d4b0 a0bc 10ee c8bd
000000e0: 7f60 e83d 7b7f f5bd 4808 6c3d 8ddd d83d
000000f0: ae66 8e3d 629a bd3d cbce 573c 2ecf 2d3e
00000100: eaa3 953d 05ac 01bd 8b4d c5bd db9b 343d
00000110: 4f73 903d a9a4 153d c094 733e a2d7 953d
00000120: a32e 32bd db3f 143e 55e2 ec3d 725b 073e
00000130: 24c6 2a3d e70f b0bc e5aa 733d 23ff b43d
00000140: 34ac 09be 7f35 32be adc7 f3bc 8ca0 973d
00000150: b1b8 6a3d e200 1a3d 3ec6 fc3d 7841 3ebd
00000160: 31a3 c7bd 3876 423c af19 2fb9 5b81 f33d
00000170: 2508 8d3d aa39 f33d 9e0e 2b3d 94eb 5f3d
00000180: b263 30bd c6a4 c93d cb3d c23a 3169 bbbe
00000190: f7b2 8dbd 4ef6 773e 64d7 3c3c 19d7 3c3e
000001a0: d526 c53c 4455 e8bc 8014 f33d de5a ad3d
000001b0: a276 56bd 00fc b63d d2aa 10bd f281 9e3d
000001c0: c6ad 47bd bded 8ebd a474 3e3c 4623 b93d
000001d0: fb04 143e e9a8 053e 156d f6bd 2b54 c53d
000001e0: 809c 253d 08af 8b3d 363a d23d c16a 973d
000001f0: 3456 1f3d e1fc 8dbd b56b b73c 9726 1a3e
00000200: 1a3a 6e3e c0cf 3a3e cf6e 1f3e d47b 11bd
00000210: 2b4d 943d b72b 633e 0a68 8f3e 1e46 003d
00000220: aa47 4e3e 0735 753e 8fc1 423e 7e15 3a3e
00000230: 34ff a8bd 12f6 323e 6515 923d 4a26 803d
00000240: 60ef 513e 159d b33d 7f82 1b3e 6c8f 9e3d
00000250: c7cc 253e af9c 5d3e c40a 623e 4290 ed3c
00000260: f53b 3d3e 4ce2 763e 37f4 583e 60f4 513e
00000270: 2ab6 a53e 6e4b 073e ceb5 fa3d 620f ef3d
00000280: 412d 583e 9b2f a33d 80c1 183e 60b2 f73d
00000290: dc9d f53d 650d db3d 9d9a 473e d27c a03d
000002a0: e28b 003e ab04 803e 0e4e e73d 5f6c 7f3e
000002b0: c5f9 a53d c754 de3b 5ff4 fb3d 08c4 073e
000002c0: d7ca c23d 7cd0 81bd bde7 95bd da2f 403e
000002d0: a05f 0a3d baf1 25bd 574d 503e 7f55 363e
000002e0: f83c c7bc 8e6b 073e 6986 6e3e b21c dc3d
000002f0: 3adb 8a3e 1882 403e 36dc 9dbd a38f 553e
00000300: a2fe fe3d 5321 2e3d d1c4 3abc 632c 343e
00000310: 24b6 943d de16 763e fabd 053c d548 553d
00000320: 707f 223d 8dda 7b3d 5a20 0d3e a13f f53d
00000330: 36a0 bb3d 8819 cbbc 76dc 843e 8da4 043e
00000340: 5bc7 a13d 521e eabd 29f3 703e ccde 813e
00000350: c738 653d 0104 703e fded 0c3e caa9 653e
00000360: bd0f 99bd cf4a 2cbd 503d 223e 1436 a83d
00000370: 75a1 093e 1077 f63d c1f4 5c3e ef93 543e
00000380: 7456 183e a2ca 533d 69da 833e c5fc 2d3e
00000390: 1e05 edbd df0b fc3d be1e c33d 55bc e63d
000003a0: 4cb6 413e 5465 b23d cd04 1e3e ad34 143e
000003b0: 5f56 463e cd29 2f3e 07ba 263e 3b83 393e
000003c0: a3a7 9fbd 1889 43bd 8734 9b3d 394f 5a3e
000003d0: ebf5 0f3e 54ce 863e 19cf 9bbd bb73 50bc
000003e0: 5d87 4fbd 3df7 d93c 2f53 343e 4b35 743e
000003f0: 305f 853e 103c 29bd 520c c63d 0728 593e
0.123430714 0.041369587 -0.006914099 -0.041021522 -0.20302613 -0.0023181217 0.08222085 -0.03805107
-0.020115752 0.115991905 0.07268433 -0.120315365 -0.106286205 0.03792987 0.0036383495 -0.11092358
0.022915471 -0.0500714 0.09232642 0.00056123565 0.075056285 0.056379475 0.056828156 -0.011331696
-0.013122586 0.010856607 0.11519021 0.028087154 0.056020293 0.13690443 0.12092839 0.124367386
0.046484023 -0.0036372552 0.05055855 -0.005631098 0.14236744 -0.019207338 0.06744778 0.16583638
0.097180806 0.13684334 0.031779554 0.0011408199 0.11486935 0.10214365 0.03577373 0.0989598
-0.12061961 -0.008832577 -0.082664445 -0.034022093 0.023620302 0.055798665 -0.019615568 -0.09811032
0.1134653 -0.119872056 0.057625085 0.105891325 0.06953178 0.09257962 0.013171862 0.16973564
0.07306655 -0.03165819 -0.09633931 0.044093948 0.07053243 0.036533985 0.23787212 0.07316519
-0.043501507 0.14477484 0.11566607 0.13218477 0.041692868 -0.021491958 0.05948915 0.08837726
-0.13444597 -0.1740322 -0.029758299 0.07403669 0.05730504 0.0375985 0.12342499 -0.046449155
-0.09747923 0.011869006 -0.00016698868 0.11889907 0.06886319 0.11876233 0.041761987 0.054668024
-0.043063827 0.09845881 0.0014819441 -0.36603692 -0.069189005 0.24215052 0.0115259625 0.18441428
0.024066368 -0.02836097 0.118691444 0.08464597 -0.05235923 0.08934784 -0.035319157 0.07739629
-0.048749708 -0.06978939 0.011624489 0.09039931 0.14455025 0.13052715 -0.120325245 0.096351944
0.040432453 0.06820494 0.10265009 0.073934086 0.03890057 -0.069329984 0.022390226 0.15053783
0.23264351 0.18243313 0.15569614 -0.035518482 0.07241281 0.22184645 0.28009063 0.03131687
0.20144525 0.2394601 0.19019149 0.18172261 -0.08251801 0.17476681 0.07132987 0.06257303
0.2050147 0.087701954 0.15186499 0.07742199 0.16191398 0.21641801 0.2207442 0.028999452
0.18479903 0.24109763 0.2118691 0.20503378 0.32365543 0.13212368 0.12241708 0.11672856
0.21111013 0.079680644 0.14917564 0.12094569 0.11993 0.10695914 0.19492574 0.078363076
0.12553361 0.2500356 0.112941846 0.24943684 0.081042804 0.0067850086 0.123024695 0.13258374
0.09511345 -0.06338593 -0.07319591 0.18768254 0.0337826 -0.04051373 0.20342003 0.17806052
-0.024321064 0.13224623 0.23293461 0.10747661 0.27120382 0.18799627 -0.077080175 0.20855574
0.12450911 0.04251225 -0.011399464 0.17595057 0.07261303 0.2403216 0.00816297 0.05207141
0.039672315 0.061487723 0.13781872 0.11975027 0.09161417 -0.024792448 0.25949448 0.12953396
0.07899352 -0.114315644 0.23530258 0.25365293 0.05596235 0.23439027 0.1376266 0.2242805
-0.07473705 -0.04206353 0.15843701 0.082134396 0.13440497 0.12034428 0.21577741 0.20759557
0.14876729 0.051706918 0.2575257 0.16990955 -0.11573242 0.12306952 0.09527348 0.1126639
0.18917197 0.08710733 0.15431519 0.14473219 0.19368885 0.1710579 0.16281901 0.18116467
-0.07795646 -0.047738165 0.07578378 0.21319284 0.14058654 0.2632929 -0.0760786 -0.012722905
-0.0506662 0.02660715 0.17609857 0.23848455 0.26049185 -0.041317046 0.09670319 0.21206675

model.model.6.bias f4 [128]
00000000: 6f62 5abd 3c9f 7abe 861c 643d 6b15 6f3d
00000010: 3cd9 4dba 8cd6 3cbe 2f3e bcbd 6b7b d4bd
00000020: 6b36 8cbc b3fb 6ebd 2f07 3cbd 6f43 20bd
00000030: a92a e5bb ffc4 a63c 1ab6 febd e53c 833d
00000040: 0d80 2bbc 66c0 d73d 0e43 9bbd 414f d0bb
00000050: 86f0 54be fdfd 8dbc 5dd3 9ebd 226f 29be
00000060: a9c3 57bd ea92 763d 05d6 463d 934e 37be
00000070: a16e 01be e524 013c 44e4 32bd 1022 043d
00000080: dc21 96bd 9fa2 8abd e3a9 54be d743 43bd
00000090: 366b 1dbe d497 a23d 9ef5 533d bc48 15be
000000a0: 67b6 d5bb 1530 1cbe b00b 6ebd d32b 9b3d
000000b0: 7b3d 5fbe 167b 8f3c 1779 393d 0c78 5dbe
000000c0: cb6d 0ebd 6d59 0cbe 8403 cbbb 371a 75bd
000000d0: 181f 8cbd 9e26 2e3d 2979 26bd db25 8ebd
000000e0: f8f5 033e 78e4 d5bc 9364 853d dc15 643e
000000f0: c4e7 63be 6ee7 fc3d 597a d13d 15b2 afbc
00000100: 6f43 f8bd 23f8 38be b9a7 36be 9912 0ebd
00000110: d111 a0bd a7df adbd c34d a03d b1c2 bfbd
00000120: d3e8 413d 2f5f 123d 89df 58be 55a0 a8bd
00000130: be16 c7bd 47f6 65bd 9585 2cbe 4d3f d4ba
00000140: 3904 143d 314e 0abe eff7 3fbd 4a8f 7a3c
00000150: 5d8a 243c e269 e13b 8935 c43d c648 173d
00000160: 864a 5fbc 88c3 ddbd d77b d4bd 4969 9fbd
00000170: a183 57be e8c2 623c 4f2a 673c acdb 8e3c
00000180: 9832 80be 318a 003e 5147 d03d a0b7 933d
00000190: bced 213c 3968 8c3c e661 12bd 4e7a 5abd
000001a0: 6a80 19bd 71d8 da3d cbc9 77bc 53c6 6e3c
000001b0: 2320 b4bd 2192 c63c b03d 393d 64c3 993d
000001c0: f83e 863e 7f3e d8bd 02d3 ca3d 96c4 93bd
000001d0: fe69 10bc 65f0 14bd 3f28 ce3d 9af7 883d
000001e0: 7716 fe3c 29a5 0dbd 3052 3e3c 69c9 313e
000001f0: b071 48bc da61 cebd ab7b b53d 903e 29bd
-0.05331653 -0.24474806 0.055691265 0.058370035 -0.00078525 -0.18441218 -0.09191548 -0.103751026
-0.017115792 -0.058345508 -0.04590529 -0.03912681 -0.006993611 0.020357607 -0.12437077 0.06408099
-0.010467541 0.10534744 -0.07581149 -0.006357104 -0.20794877 -0.017333025 -0.07755158 -0.165463
-0.05267683 0.060198702 0.04854395 -0.17901067 -0.12639858 0.0078823315 -0.043674722 0.032259047
-0.07330677 -0.06769299 -0.20767932 -0.04767212 -0.15372929 0.07939115 0.05174791 -0.14578527
-0.006521988 -0.15252717 -0.058116615 0.07576718 -0.21800797 0.017514747 0.045281496 -0.21627825
-0.034772675 -0.13705988 -0.0061954875 -0.059839454 -0.06841868 0.042517297 -0.04064289 -0.06940814
0.12886798 -0.026109919 0.06513324 0.22273964 -0.2225638 0.12348829 0.10228414 -0.02144722
-0.12122237 -0.18063407 -0.17837419 -0.034685705 -0.07815898 -0.08489924 0.07827332 -0.09363306
0.04734118 0.035735305 -0.21179022 -0.08233706 -0.097211346 -0.05614307 -0.16847833 -0.0016193182
0.03613684 -0.1350639 -0.046867307 0.015292952 0.010042754 0.0068790773 0.095805235 0.036934637
-0.013628608 -0.1082831 -0.10375183 -0.077837534 -0.21046306 0.013840415 0.014109208 0.017438732
-0.250386 0.12552716 0.101698525 0.07212758 0.00988334 0.017139541 -0.035737894 -0.053339295
-0.03747598 0.10685814 -0.015123795 0.014573651 -0.08795192 0.024239602 0.045224845 0.07507971
0.26219916 -0.10558795 0.09903528 -0.0721523 -0.008814333 -0.03636207 0.1006627 0.06687851
0.031016571 -0.034581337 0.011616275 0.17361988 -0.012234136 -0.100772575 0.088614784 -0.04131943

model.model.8.weight f4 [8, 128]
00000000: 5531 82bc 39f7 84bd c6d3 2dbd c44c 21bb
00000010: e794 e93c 0875 0ebd 7e3f bfbd 1d49 ec3c
00000020: 589c 5b3a fc5a c7bc c5b0 663d 9c04 dbbc
00000030: 2e38 003d e5b1 713c 391e 813d ac52 ad3a
00000040: 9046 6539 a72f 2b3c 22bb c9bc f66c a9bd
00000050: 6b2d eb3c a026 343a f84c cabd e0b8 0bbc
00000060: ce85 5dbd 4094 1cbc c0e9 6a3d d4d7 c5bd
00000070: 62f0 94bd 1f44 e4bc e62a 19ba 1414 25bd
00000080: 409c aabc c214 66bd f2ee 79bd 3195 983d
00000090: fefa a5bd a0c2 33ba 66de 2eba 9fcf b8bd
000000a0: b22f 4abc 4c58 96bd facc 4139 f035 5d3d
000000b0: 2de8 70bd 4b51 633d 02e2 eebd b631 18bc
000000c0: 4b44 b33a 064c 59bd 29c7 97bc ae5c 57bd
000000d0: 0db0 b9ba 393f 94bd d2b8 96bc bbfa ba3c
000000e0: a82f 873c d122 1bbd 6c60 e83b 01b3 c13d
000000f0: edd0 9ebd 8419 c63d a246 3b3d 7495 ddbc
00000100: 9993 82bd a916 1fbc 3473 843d a4d9 5e3c
00000110: 53ef 9fbc 73d2 7cba 2d7e adbb 7dae adbd
00000120: 3af6 123d af48 e43b b545 4c3d 71b6 553a
00000130: 1208 bbbc a88b dcbb 0604 bbbd 5ef8 273c
00000140: aab4 f4b9 f885 35bd d63c cebd b575 5cbd
00000150: 861f 773b 0521 863d 08eb 623d bd5d 113b
00000160: 6da9 71bc de81 1ebd 9c9c b03c db03 70bd
00000170: cf83 24bd d551 6f3d 5e19 abbc 4d16 973d
00000180: 9c41 59bd 7e9f 04be 57bc 803a 3ca7 3d3d
00000190: 2ae7 82ba 846f 9fbd 95f4 93bd cf33 8ebd
000001a0: 88ff 3ebd be3b c33d f6c5 81bd 8b23 a8bc
000001b0: 1940 f43a 15ad f8bc 9619 303d c50a 1abb
000001c0: 1f10 9d3b 35af a5bd 1361 cf3d 0ec5 9dba
000001d0: ca62 12bd 59c1 c9bd 91d6 a93c 4f9b 1a3e
000001e0: d135 b7b9 7ce4 4cbb 00ba b0bd d8a5 a63d
000001f0: 73b7 aa3b 8f7d 18b9 74c5 5a3d 7248 543d
00000200: 6a68 333d 0bf0 7a3d 6cfd 03bd b68a 5dbb
00000210: d8b3 b4ba 9afa 503d 8a45 a93c 09f9 98bb
00000220: 2054 303b 9eab 133d 0153 1d3d a703 943d
00000230: ab79 12bd 9cfe 383d 673e 33bd 9c12 8a3c
00000240: e216 5dbb b855 8e3d 5b99 88b9 4f9f 8dbc
00000250: 3749 573d 8beb 0b3d ce75 d23c 9dd3 0abc
00000260: e281 74bc 8e8d 083d 62e4 ffbb 1bb6 5ebd
00000270: 38d5 3fbd e1d4 2a3c bc61 9f3b 9514 07bc
00000280: 3e6f e6ba 24d5 abbb cffb 31bd efe2 abbc
00000290: 0691 c93c 55c3 073d 29e7 9ebc d82b 993d
000002a0: bce5 553d 8be2 6b3c 40b6 283a 0b6d 683d
000002b0: 40d8 0e3c 88e7 973c e996 013d f1d3 a1bd
000002c0: 825f 1c3b 3a9c 863d d461 f13b 4d70 683c
000002d0: 1aa7 7dbc 388f 67bd ced4 46bd 0085 4d3d
000002e0: d0f8 a83d 6738 083d 365f bebb 226d 5abd
000002f0: 2ea7 4bbd 1f79 dabc 8bb3 ad3c 5a86 823c
00000300: cba8 63bc d482 1c3d a685 143d 46fa 91bd
00000310: 43fd 19bd 099b 78bb c7c1 2abd 949e 7abd
00000320: 1e9f 01bd bb83 bb3c cda1 963b db67 26ba
00000330: 9691 b83d 3f51 14bd 70f1 2d3c 5e47 23bc
00000340: 3ce1 05bb ee2a c5bd 7cf1 ff3c 8e92 cabc
00000350: 5edd e33b c678 4c3d 4bd0 c53b 50c8 9f3c
00000360: 1f76 683b e3ec 683d b153 a1bc d0fe 98bb
00000370: 099a 20bd ea8f 91bc 49ae 213c 6f90 64bd
00000380: 6d20 0fbd bdd5 063d 7ab7 6c3c 365d bf3c
00000390: a802 833b f9b1 693b 1370 1d3d 8dad 88bd
000003a0: 1b8f 30bd 860e d43c 54bc 143d b69e 2abc
000003b0: 9bd9 8c3c f23a 49bb de83 373d e5c0 3339
000003c0: 269f 143d a4b5 43bc ef9e 02bc 2872 0b3a
000003d0: 7010 663c d0d1 a43c 0313 8d3c 8602 2bbd
000003e0: 6db7 9ab9 757c 45bd 05a9 2d3d e42b a13c
000003f0: b663 aabd f69a 89bb f36c 66bc 64a8 d7bd
-0.015892664 -0.064924665 -0.04243829 -0.0024612406 0.028513385 -0.03477958 -0.09338282 0.028843457
0.0008377484 -0.024335377 0.056320924 -0.026735596 0.031303577 0.014751886 0.06304593 0.0013223491
0.00021865428 0.010448373 -0.024625365 -0.08272736 0.02870818 0.00068722107 -0.09877962 -0.008527964
-0.054082684 -0.00955683 0.057351828 -0.096603066 -0.07272412 -0.027864514 -0.0005842879 -0.04030235
-0.020826459 -0.05617214 -0.06101889 0.07450331 -0.081045136 -0.00068573095 -0.0006670713 -0.090239756
-0.012340473 -0.0734106 0.00018482274 0.054006517 -0.05881517 0.05549745 -0.11664201 -0.009289196
0.0013676969 -0.053051017 -0.018527584 -0.05257862 -0.0014166847 -0.07238621 -0.018398676 0.022824636
0.016502216 -0.037875 0.0070915725 0.094579704 -0.07754693 0.096728355 0.045721658 -0.027048804
-0.06375808 -0.009709992 0.06467286 0.013601694 -0.019523298 -0.00096443965 -0.0052945823 -0.084805466
0.03587935 0.0069666724 0.049871165 0.0008152491 -0.022830997 -0.0067305155 -0.09131627 0.010252086
-0.00046673912 -0.044317216 -0.10070197 -0.05382319 0.0037707998 0.06549267 0.055399925 0.0022181117
-0.014749867 -0.03869807 0.021559052 -0.058597427 -0.040164765 0.05842765 -0.02088612 0.073773004
-0.053041086 -0.12951466 0.0009821755 0.046302065 -0.0009987105 -0.07784942 -0.07224385 -0.069434755
-0.046630412 0.09532879 -0.06336586 -0.02052476 0.0018634825 -0.03035597 0.04299315 -0.0023504954
0.0047931815 -0.08090059 0.10125937 -0.0012036876 -0.035738744 -0.09851331 0.020732196 0.15098308
-0.00034944576 -0.0031264117 -0.08629227 0.08137101 0.005209857 -0.00014542624 0.053410962 0.0518269
0.04380075 0.06126408 -0.032224104 -0.0033804602 -0.0013786508 0.051020242 0.020663042 -0.004668359
0.002690561 0.03605234 0.038409237 0.07227259 -0.035760563 0.04516469 -0.043760683 0.016854577
-0.0033735563 0.06949943 -0.000260542 -0.017287878 0.052560057 0.03416018 0.02569094 -0.008473304
-0.014923545 0.033338122 -0.007809208 -0.054372888 -0.0468342 0.010426731 0.004863946 -0.008244653
-0.001758076 -0.005243914 -0.043453034 -0.020982234 0.024605285 0.033145268 -0.019397335 0.07479066
0.052221045 0.014397274 0.0006435849 0.056744616 0.00871855 0.01854302 0.03163806 -0.07901753
0.0023860638 0.065727666 0.0073663983 0.014186931 -0.015481735 -0.05653307 -0.04854279 0.050175667
0.08250582 0.033256914 -0.00580969 -0.053326733 -0.04971998 -0.026669083 0.021203777 0.015933204
-0.013895224 0.038210705 0.03626027 -0.07127814 -0.037595045 -0.0037934205 -0.041688707 -0.061186388
-0.031645887 0.022889962 0.004596925 -0.0006347873 0.09012143 -0.036210295 0.010616645 -0.009965746
-0.002042844 -0.09627329 0.031243078 -0.024728086 0.0069538793 0.049919866 0.0060367933 0.019504696
0.0035470796 0.056866538 -0.019693227 -0.004669048 -0.0392094 -0.017768819 0.009868213 -0.055801805
-0.034943033 0.03291868 0.014448041 0.023359876 0.0039981194 0.0035659058 0.03843696 -0.06673727
-0.043105226 0.025885832 0.036312416 -0.010413816 0.017193606 -0.00307053 0.044803493 0.00017142629
0.03628459 -0.011945162 -0.007972463 0.000531944 0.014042005 0.020119578 0.01722098 -0.041750453
-0.00029509832 -0.048214395 0.042397518 0.019674249 -0.083197996 -0.004199381 -0.014064061 -0.10530165

model.model.8.bias f4 [8]
00000000: 4a16 f7bb ff94 7b3d 9e49 0a3a 18e1 523d
00000010: e161 353e bd51 573d b48b 8abd dffb 2e3d
-0.007540499 0.06142139 0.0005275252 0.051484197 0.17713119 0.052568186 -0.067649275 0.04272067
